2019-06-21 18:04:03,245 INFO: ------------------------number of parameters------------------------

2019-06-21 18:04:03,245 INFO: +-------------------------+------------------+--------+
|        Param name       |      Shape       |  Dim   |
+-------------------------+------------------+--------+
|       conv1.weight      |  [64, 3, 3, 3]   |  1728  |
|        bn1.weight       |       [64]       |   64   |
|         bn1.bias        |       [64]       |   64   |
|      prelu1.weight      |       [64]       |   64   |
|       conv2.weight      |  [64, 1, 3, 3]   |  576   |
|        bn2.weight       |       [64]       |   64   |
|         bn2.bias        |       [64]       |   64   |
|      prelu2.weight      |       [64]       |   64   |
|  layers.0.conv1.weight  | [128, 64, 1, 1]  |  8192  |
|   layers.0.bn1.weight   |      [128]       |  128   |
|    layers.0.bn1.bias    |      [128]       |  128   |
|  layers.0.prelu1.weight |      [128]       |  128   |
|  layers.0.conv2.weight  |  [128, 1, 3, 3]  |  1152  |
|   layers.0.bn2.weight   |      [128]       |  128   |
|    layers.0.bn2.bias    |      [128]       |  128   |
|  layers.0.prelu2.weight |      [128]       |  128   |
|  layers.0.conv3.weight  | [64, 128, 1, 1]  |  8192  |
|   layers.0.bn3.weight   |       [64]       |   64   |
|    layers.0.bn3.bias    |       [64]       |   64   |
|  layers.1.conv1.weight  | [128, 64, 1, 1]  |  8192  |
|   layers.1.bn1.weight   |      [128]       |  128   |
|    layers.1.bn1.bias    |      [128]       |  128   |
|  layers.1.prelu1.weight |      [128]       |  128   |
|  layers.1.conv2.weight  |  [128, 1, 3, 3]  |  1152  |
|   layers.1.bn2.weight   |      [128]       |  128   |
|    layers.1.bn2.bias    |      [128]       |  128   |
|  layers.1.prelu2.weight |      [128]       |  128   |
|  layers.1.conv3.weight  | [64, 128, 1, 1]  |  8192  |
|   layers.1.bn3.weight   |       [64]       |   64   |
|    layers.1.bn3.bias    |       [64]       |   64   |
|  layers.2.conv1.weight  | [128, 64, 1, 1]  |  8192  |
|   layers.2.bn1.weight   |      [128]       |  128   |
|    layers.2.bn1.bias    |      [128]       |  128   |
|  layers.2.prelu1.weight |      [128]       |  128   |
|  layers.2.conv2.weight  |  [128, 1, 3, 3]  |  1152  |
|   layers.2.bn2.weight   |      [128]       |  128   |
|    layers.2.bn2.bias    |      [128]       |  128   |
|  layers.2.prelu2.weight |      [128]       |  128   |
|  layers.2.conv3.weight  | [64, 128, 1, 1]  |  8192  |
|   layers.2.bn3.weight   |       [64]       |   64   |
|    layers.2.bn3.bias    |       [64]       |   64   |
|  layers.3.conv1.weight  | [128, 64, 1, 1]  |  8192  |
|   layers.3.bn1.weight   |      [128]       |  128   |
|    layers.3.bn1.bias    |      [128]       |  128   |
|  layers.3.prelu1.weight |      [128]       |  128   |
|  layers.3.conv2.weight  |  [128, 1, 3, 3]  |  1152  |
|   layers.3.bn2.weight   |      [128]       |  128   |
|    layers.3.bn2.bias    |      [128]       |  128   |
|  layers.3.prelu2.weight |      [128]       |  128   |
|  layers.3.conv3.weight  | [64, 128, 1, 1]  |  8192  |
|   layers.3.bn3.weight   |       [64]       |   64   |
|    layers.3.bn3.bias    |       [64]       |   64   |
|  layers.4.conv1.weight  | [128, 64, 1, 1]  |  8192  |
|   layers.4.bn1.weight   |      [128]       |  128   |
|    layers.4.bn1.bias    |      [128]       |  128   |
|  layers.4.prelu1.weight |      [128]       |  128   |
|  layers.4.conv2.weight  |  [128, 1, 3, 3]  |  1152  |
|   layers.4.bn2.weight   |      [128]       |  128   |
|    layers.4.bn2.bias    |      [128]       |  128   |
|  layers.4.prelu2.weight |      [128]       |  128   |
|  layers.4.conv3.weight  | [64, 128, 1, 1]  |  8192  |
|   layers.4.bn3.weight   |       [64]       |   64   |
|    layers.4.bn3.bias    |       [64]       |   64   |
|  layers.5.conv1.weight  | [256, 64, 1, 1]  | 16384  |
|   layers.5.bn1.weight   |      [256]       |  256   |
|    layers.5.bn1.bias    |      [256]       |  256   |
|  layers.5.prelu1.weight |      [256]       |  256   |
|  layers.5.conv2.weight  |  [256, 1, 3, 3]  |  2304  |
|   layers.5.bn2.weight   |      [256]       |  256   |
|    layers.5.bn2.bias    |      [256]       |  256   |
|  layers.5.prelu2.weight |      [256]       |  256   |
|  layers.5.conv3.weight  | [128, 256, 1, 1] | 32768  |
|   layers.5.bn3.weight   |      [128]       |  128   |
|    layers.5.bn3.bias    |      [128]       |  128   |
|  layers.6.conv1.weight  | [256, 128, 1, 1] | 32768  |
|   layers.6.bn1.weight   |      [256]       |  256   |
|    layers.6.bn1.bias    |      [256]       |  256   |
|  layers.6.prelu1.weight |      [256]       |  256   |
|  layers.6.conv2.weight  |  [256, 1, 3, 3]  |  2304  |
|   layers.6.bn2.weight   |      [256]       |  256   |
|    layers.6.bn2.bias    |      [256]       |  256   |
|  layers.6.prelu2.weight |      [256]       |  256   |
|  layers.6.conv3.weight  | [128, 256, 1, 1] | 32768  |
|   layers.6.bn3.weight   |      [128]       |  128   |
|    layers.6.bn3.bias    |      [128]       |  128   |
|  layers.7.conv1.weight  | [256, 128, 1, 1] | 32768  |
|   layers.7.bn1.weight   |      [256]       |  256   |
|    layers.7.bn1.bias    |      [256]       |  256   |
|  layers.7.prelu1.weight |      [256]       |  256   |
|  layers.7.conv2.weight  |  [256, 1, 3, 3]  |  2304  |
|   layers.7.bn2.weight   |      [256]       |  256   |
|    layers.7.bn2.bias    |      [256]       |  256   |
|  layers.7.prelu2.weight |      [256]       |  256   |
|  layers.7.conv3.weight  | [128, 256, 1, 1] | 32768  |
|   layers.7.bn3.weight   |      [128]       |  128   |
|    layers.7.bn3.bias    |      [128]       |  128   |
|  layers.8.conv1.weight  | [256, 128, 1, 1] | 32768  |
|   layers.8.bn1.weight   |      [256]       |  256   |
|    layers.8.bn1.bias    |      [256]       |  256   |
|  layers.8.prelu1.weight |      [256]       |  256   |
|  layers.8.conv2.weight  |  [256, 1, 3, 3]  |  2304  |
|   layers.8.bn2.weight   |      [256]       |  256   |
|    layers.8.bn2.bias    |      [256]       |  256   |
|  layers.8.prelu2.weight |      [256]       |  256   |
|  layers.8.conv3.weight  | [128, 256, 1, 1] | 32768  |
|   layers.8.bn3.weight   |      [128]       |  128   |
|    layers.8.bn3.bias    |      [128]       |  128   |
|  layers.9.conv1.weight  | [256, 128, 1, 1] | 32768  |
|   layers.9.bn1.weight   |      [256]       |  256   |
|    layers.9.bn1.bias    |      [256]       |  256   |
|  layers.9.prelu1.weight |      [256]       |  256   |
|  layers.9.conv2.weight  |  [256, 1, 3, 3]  |  2304  |
|   layers.9.bn2.weight   |      [256]       |  256   |
|    layers.9.bn2.bias    |      [256]       |  256   |
|  layers.9.prelu2.weight |      [256]       |  256   |
|  layers.9.conv3.weight  | [128, 256, 1, 1] | 32768  |
|   layers.9.bn3.weight   |      [128]       |  128   |
|    layers.9.bn3.bias    |      [128]       |  128   |
|  layers.10.conv1.weight | [256, 128, 1, 1] | 32768  |
|   layers.10.bn1.weight  |      [256]       |  256   |
|    layers.10.bn1.bias   |      [256]       |  256   |
| layers.10.prelu1.weight |      [256]       |  256   |
|  layers.10.conv2.weight |  [256, 1, 3, 3]  |  2304  |
|   layers.10.bn2.weight  |      [256]       |  256   |
|    layers.10.bn2.bias   |      [256]       |  256   |
| layers.10.prelu2.weight |      [256]       |  256   |
|  layers.10.conv3.weight | [128, 256, 1, 1] | 32768  |
|   layers.10.bn3.weight  |      [128]       |  128   |
|    layers.10.bn3.bias   |      [128]       |  128   |
|  layers.11.conv1.weight | [256, 128, 1, 1] | 32768  |
|   layers.11.bn1.weight  |      [256]       |  256   |
|    layers.11.bn1.bias   |      [256]       |  256   |
| layers.11.prelu1.weight |      [256]       |  256   |
|  layers.11.conv2.weight |  [256, 1, 3, 3]  |  2304  |
|   layers.11.bn2.weight  |      [256]       |  256   |
|    layers.11.bn2.bias   |      [256]       |  256   |
| layers.11.prelu2.weight |      [256]       |  256   |
|  layers.11.conv3.weight | [128, 256, 1, 1] | 32768  |
|   layers.11.bn3.weight  |      [128]       |  128   |
|    layers.11.bn3.bias   |      [128]       |  128   |
|  layers.12.conv1.weight | [512, 128, 1, 1] | 65536  |
|   layers.12.bn1.weight  |      [512]       |  512   |
|    layers.12.bn1.bias   |      [512]       |  512   |
| layers.12.prelu1.weight |      [512]       |  512   |
|  layers.12.conv2.weight |  [512, 1, 3, 3]  |  4608  |
|   layers.12.bn2.weight  |      [512]       |  512   |
|    layers.12.bn2.bias   |      [512]       |  512   |
| layers.12.prelu2.weight |      [512]       |  512   |
|  layers.12.conv3.weight | [128, 512, 1, 1] | 65536  |
|   layers.12.bn3.weight  |      [128]       |  128   |
|    layers.12.bn3.bias   |      [128]       |  128   |
|  layers.13.conv1.weight | [256, 128, 1, 1] | 32768  |
|   layers.13.bn1.weight  |      [256]       |  256   |
|    layers.13.bn1.bias   |      [256]       |  256   |
| layers.13.prelu1.weight |      [256]       |  256   |
|  layers.13.conv2.weight |  [256, 1, 3, 3]  |  2304  |
|   layers.13.bn2.weight  |      [256]       |  256   |
|    layers.13.bn2.bias   |      [256]       |  256   |
| layers.13.prelu2.weight |      [256]       |  256   |
|  layers.13.conv3.weight | [128, 256, 1, 1] | 32768  |
|   layers.13.bn3.weight  |      [128]       |  128   |
|    layers.13.bn3.bias   |      [128]       |  128   |
|  layers.14.conv1.weight | [256, 128, 1, 1] | 32768  |
|   layers.14.bn1.weight  |      [256]       |  256   |
|    layers.14.bn1.bias   |      [256]       |  256   |
| layers.14.prelu1.weight |      [256]       |  256   |
|  layers.14.conv2.weight |  [256, 1, 3, 3]  |  2304  |
|   layers.14.bn2.weight  |      [256]       |  256   |
|    layers.14.bn2.bias   |      [256]       |  256   |
| layers.14.prelu2.weight |      [256]       |  256   |
|  layers.14.conv3.weight | [128, 256, 1, 1] | 32768  |
|   layers.14.bn3.weight  |      [128]       |  128   |
|    layers.14.bn3.bias   |      [128]       |  128   |
|       conv3.weight      | [512, 128, 1, 1] | 65536  |
|        bn3.weight       |      [512]       |  512   |
|         bn3.bias        |      [512]       |  512   |
|      prelu3.weight      |      [512]       |  512   |
|       conv4.weight      |  [512, 1, 7, 7]  | 25088  |
|        bn4.weight       |      [512]       |  512   |
|         bn4.bias        |      [512]       |  512   |
|      linear.weight      |    [512, 512]    | 262144 |
|       linear.bias       |      [512]       |  512   |
+-------------------------+------------------+--------+
2019-06-21 18:04:03,266 INFO: |===>Number of parameters is: 1200000
2019-06-21 18:04:03,494 INFO: ------------------------FLOPs------------------------

2019-06-21 18:04:03,494 INFO: +-----------------+------------------+-----------+------------+------------------+----------+------------------------+
|      Layer      |   Weight Shape   | #Channels | Bias Shape |   Output Shape   |  FLOPs   |       Percentage       |
+-----------------+------------------+-----------+------------+------------------+----------+------------------------+
|      conv1      |  [64, 3, 3, 3]   |     3     |    [0]     | [1, 64, 56, 56]  | 10637312 |  0.02416394169065014   |
|      conv2      |  [64, 1, 3, 3]   |     64    |    [0]     | [1, 64, 56, 56]  | 3609536  |  0.008199497902694078  |
|  layers.0.conv1 | [128, 64, 1, 1]  |     64    |    [0]     | [1, 128, 56, 56] | 50978816 |  0.11580455074387047   |
|  layers.0.conv2 |  [128, 1, 3, 3]  |    128    |    [0]     | [1, 128, 28, 28] | 1805552  |  0.004101529902238154  |
|  layers.0.conv3 | [64, 128, 1, 1]  |    128    |    [0]     | [1, 64, 28, 28]  | 12794880 |  0.029065118542998987  |
|  layers.1.conv1 | [128, 64, 1, 1]  |     64    |    [0]     | [1, 128, 28, 28] | 12744704 |  0.028951137685967618  |
|  layers.1.conv2 |  [128, 1, 3, 3]  |    128    |    [0]     | [1, 128, 28, 28] | 1805552  |  0.004101529902238154  |
|  layers.1.conv3 | [64, 128, 1, 1]  |    128    |    [0]     | [1, 64, 28, 28]  | 12794880 |  0.029065118542998987  |
|  layers.2.conv1 | [128, 64, 1, 1]  |     64    |    [0]     | [1, 128, 28, 28] | 12744704 |  0.028951137685967618  |
|  layers.2.conv2 |  [128, 1, 3, 3]  |    128    |    [0]     | [1, 128, 28, 28] | 1805552  |  0.004101529902238154  |
|  layers.2.conv3 | [64, 128, 1, 1]  |    128    |    [0]     | [1, 64, 28, 28]  | 12794880 |  0.029065118542998987  |
|  layers.3.conv1 | [128, 64, 1, 1]  |     64    |    [0]     | [1, 128, 28, 28] | 12744704 |  0.028951137685967618  |
|  layers.3.conv2 |  [128, 1, 3, 3]  |    128    |    [0]     | [1, 128, 28, 28] | 1805552  |  0.004101529902238154  |
|  layers.3.conv3 | [64, 128, 1, 1]  |    128    |    [0]     | [1, 64, 28, 28]  | 12794880 |  0.029065118542998987  |
|  layers.4.conv1 | [128, 64, 1, 1]  |     64    |    [0]     | [1, 128, 28, 28] | 12744704 |  0.028951137685967618  |
|  layers.4.conv2 |  [128, 1, 3, 3]  |    128    |    [0]     | [1, 128, 28, 28] | 1805552  |  0.004101529902238154  |
|  layers.4.conv3 | [64, 128, 1, 1]  |    128    |    [0]     | [1, 64, 28, 28]  | 12794880 |  0.029065118542998987  |
|  layers.5.conv1 | [256, 64, 1, 1]  |     64    |    [0]     | [1, 256, 28, 28] | 25489408 |  0.057902275371935236  |
|  layers.5.conv2 |  [256, 1, 3, 3]  |    256    |    [0]     | [1, 256, 14, 14] |  902972  | 0.0020512101888418557  |
|  layers.5.conv3 | [128, 256, 1, 1] |    256    |    [0]     | [1, 128, 14, 14] | 12819968 |  0.02912210897151467   |
|  layers.6.conv1 | [256, 128, 1, 1] |    128    |    [0]     | [1, 256, 14, 14] | 12794880 |  0.029065118542998987  |
|  layers.6.conv2 |  [256, 1, 3, 3]  |    256    |    [0]     | [1, 256, 14, 14] |  902972  | 0.0020512101888418557  |
|  layers.6.conv3 | [128, 256, 1, 1] |    256    |    [0]     | [1, 128, 14, 14] | 12819968 |  0.02912210897151467   |
|  layers.7.conv1 | [256, 128, 1, 1] |    128    |    [0]     | [1, 256, 14, 14] | 12794880 |  0.029065118542998987  |
|  layers.7.conv2 |  [256, 1, 3, 3]  |    256    |    [0]     | [1, 256, 14, 14] |  902972  | 0.0020512101888418557  |
|  layers.7.conv3 | [128, 256, 1, 1] |    256    |    [0]     | [1, 128, 14, 14] | 12819968 |  0.02912210897151467   |
|  layers.8.conv1 | [256, 128, 1, 1] |    128    |    [0]     | [1, 256, 14, 14] | 12794880 |  0.029065118542998987  |
|  layers.8.conv2 |  [256, 1, 3, 3]  |    256    |    [0]     | [1, 256, 14, 14] |  902972  | 0.0020512101888418557  |
|  layers.8.conv3 | [128, 256, 1, 1] |    256    |    [0]     | [1, 128, 14, 14] | 12819968 |  0.02912210897151467   |
|  layers.9.conv1 | [256, 128, 1, 1] |    128    |    [0]     | [1, 256, 14, 14] | 12794880 |  0.029065118542998987  |
|  layers.9.conv2 |  [256, 1, 3, 3]  |    256    |    [0]     | [1, 256, 14, 14] |  902972  | 0.0020512101888418557  |
|  layers.9.conv3 | [128, 256, 1, 1] |    256    |    [0]     | [1, 128, 14, 14] | 12819968 |  0.02912210897151467   |
| layers.10.conv1 | [256, 128, 1, 1] |    128    |    [0]     | [1, 256, 14, 14] | 12794880 |  0.029065118542998987  |
| layers.10.conv2 |  [256, 1, 3, 3]  |    256    |    [0]     | [1, 256, 14, 14] |  902972  | 0.0020512101888418557  |
| layers.10.conv3 | [128, 256, 1, 1] |    256    |    [0]     | [1, 128, 14, 14] | 12819968 |  0.02912210897151467   |
| layers.11.conv1 | [256, 128, 1, 1] |    128    |    [0]     | [1, 256, 14, 14] | 12794880 |  0.029065118542998987  |
| layers.11.conv2 |  [256, 1, 3, 3]  |    256    |    [0]     | [1, 256, 14, 14] |  902972  | 0.0020512101888418557  |
| layers.11.conv3 | [128, 256, 1, 1] |    256    |    [0]     | [1, 128, 14, 14] | 12819968 |  0.02912210897151467   |
| layers.12.conv1 | [512, 128, 1, 1] |    128    |    [0]     | [1, 512, 14, 14] | 25589760 |  0.058130237085997974  |
| layers.12.conv2 |  [512, 1, 3, 3]  |    512    |    [0]     |  [1, 512, 7, 7]  |  451535  | 0.0010257164038516226  |
| layers.12.conv3 | [128, 512, 1, 1] |    512    |    [0]     |  [1, 128, 7, 7]  | 6416256  |  0.014575302092886258  |
| layers.13.conv1 | [256, 128, 1, 1] |    128    |    [0]     |  [1, 256, 7, 7]  | 3198720  |  0.007266279635749747  |
| layers.13.conv2 |  [256, 1, 3, 3]  |    256    |    [0]     |  [1, 256, 7, 7]  |  225743  | 0.0005128025472104639  |
| layers.13.conv3 | [128, 256, 1, 1] |    256    |    [0]     |  [1, 128, 7, 7]  | 3204992  |  0.007280527242878668  |
| layers.14.conv1 | [256, 128, 1, 1] |    128    |    [0]     |  [1, 256, 7, 7]  | 3198720  |  0.007266279635749747  |
| layers.14.conv2 |  [256, 1, 3, 3]  |    256    |    [0]     |  [1, 256, 7, 7]  |  225743  | 0.0005128025472104639  |
| layers.14.conv3 | [128, 256, 1, 1] |    256    |    [0]     |  [1, 128, 7, 7]  | 3204992  |  0.007280527242878668  |
|      conv3      | [512, 128, 1, 1] |    128    |    [0]     |  [1, 512, 7, 7]  | 6397440  |  0.014532559271499493  |
|      conv4      |  [512, 1, 7, 7]  |    512    |    [0]     |  [1, 512, 1, 1]  |  50175   | 0.00011397858541033399 |
|      linear     |    [512, 512]    |    512    |   [512]    |     [1, 512]     |  524288  |  0.001190983648980831  |
+-----------------+------------------+-----------+------------+------------------+----------+------------------------+
2019-06-21 18:04:03,512 INFO: |===>Total FLOPs: 4.402143e+08
2019-06-21 18:04:32,861 INFO: ------------------------number of parameters------------------------

2019-06-21 18:04:32,862 INFO: +-------------------------+------------------+--------+
|        Param name       |      Shape       |  Dim   |
+-------------------------+------------------+--------+
|       conv1.weight      |  [64, 3, 3, 3]   |  1728  |
|        bn1.weight       |       [64]       |   64   |
|         bn1.bias        |       [64]       |   64   |
|      prelu1.weight      |       [64]       |   64   |
|       conv2.weight      |  [64, 1, 3, 3]   |  576   |
|        bn2.weight       |       [64]       |   64   |
|         bn2.bias        |       [64]       |   64   |
|      prelu2.weight      |       [64]       |   64   |
|  layers.0.conv1.weight  | [200, 64, 1, 1]  | 12800  |
|   layers.0.bn1.weight   |      [200]       |  200   |
|    layers.0.bn1.bias    |      [200]       |  200   |
|  layers.0.prelu1.weight |      [200]       |  200   |
|  layers.0.conv2.weight  |  [200, 1, 3, 3]  |  1800  |
|   layers.0.bn2.weight   |      [200]       |  200   |
|    layers.0.bn2.bias    |      [200]       |  200   |
|  layers.0.prelu2.weight |      [200]       |  200   |
|  layers.0.conv3.weight  | [104, 200, 1, 1] | 20800  |
|   layers.0.bn3.weight   |      [104]       |  104   |
|    layers.0.bn3.bias    |      [104]       |  104   |
|  layers.1.conv1.weight  | [200, 64, 1, 1]  | 12800  |
|   layers.1.bn1.weight   |      [200]       |  200   |
|    layers.1.bn1.bias    |      [200]       |  200   |
|  layers.1.prelu1.weight |      [200]       |  200   |
|  layers.1.conv2.weight  |  [200, 1, 3, 3]  |  1800  |
|   layers.1.bn2.weight   |      [200]       |  200   |
|    layers.1.bn2.bias    |      [200]       |  200   |
|  layers.1.prelu2.weight |      [200]       |  200   |
|  layers.1.conv3.weight  | [104, 200, 1, 1] | 20800  |
|   layers.1.bn3.weight   |      [104]       |  104   |
|    layers.1.bn3.bias    |      [104]       |  104   |
|  layers.2.conv1.weight  | [200, 64, 1, 1]  | 12800  |
|   layers.2.bn1.weight   |      [200]       |  200   |
|    layers.2.bn1.bias    |      [200]       |  200   |
|  layers.2.prelu1.weight |      [200]       |  200   |
|  layers.2.conv2.weight  |  [200, 1, 3, 3]  |  1800  |
|   layers.2.bn2.weight   |      [200]       |  200   |
|    layers.2.bn2.bias    |      [200]       |  200   |
|  layers.2.prelu2.weight |      [200]       |  200   |
|  layers.2.conv3.weight  | [104, 200, 1, 1] | 20800  |
|   layers.2.bn3.weight   |      [104]       |  104   |
|    layers.2.bn3.bias    |      [104]       |  104   |
|  layers.3.conv1.weight  | [200, 64, 1, 1]  | 12800  |
|   layers.3.bn1.weight   |      [200]       |  200   |
|    layers.3.bn1.bias    |      [200]       |  200   |
|  layers.3.prelu1.weight |      [200]       |  200   |
|  layers.3.conv2.weight  |  [200, 1, 3, 3]  |  1800  |
|   layers.3.bn2.weight   |      [200]       |  200   |
|    layers.3.bn2.bias    |      [200]       |  200   |
|  layers.3.prelu2.weight |      [200]       |  200   |
|  layers.3.conv3.weight  | [104, 200, 1, 1] | 20800  |
|   layers.3.bn3.weight   |      [104]       |  104   |
|    layers.3.bn3.bias    |      [104]       |  104   |
|  layers.4.conv1.weight  | [200, 64, 1, 1]  | 12800  |
|   layers.4.bn1.weight   |      [200]       |  200   |
|    layers.4.bn1.bias    |      [200]       |  200   |
|  layers.4.prelu1.weight |      [200]       |  200   |
|  layers.4.conv2.weight  |  [200, 1, 3, 3]  |  1800  |
|   layers.4.bn2.weight   |      [200]       |  200   |
|    layers.4.bn2.bias    |      [200]       |  200   |
|  layers.4.prelu2.weight |      [200]       |  200   |
|  layers.4.conv3.weight  | [104, 200, 1, 1] | 20800  |
|   layers.4.bn3.weight   |      [104]       |  104   |
|    layers.4.bn3.bias    |      [104]       |  104   |
|  layers.5.conv1.weight  | [400, 64, 1, 1]  | 25600  |
|   layers.5.bn1.weight   |      [400]       |  400   |
|    layers.5.bn1.bias    |      [400]       |  400   |
|  layers.5.prelu1.weight |      [400]       |  400   |
|  layers.5.conv2.weight  |  [400, 1, 3, 3]  |  3600  |
|   layers.5.bn2.weight   |      [400]       |  400   |
|    layers.5.bn2.bias    |      [400]       |  400   |
|  layers.5.prelu2.weight |      [400]       |  400   |
|  layers.5.conv3.weight  | [200, 400, 1, 1] | 80000  |
|   layers.5.bn3.weight   |      [200]       |  200   |
|    layers.5.bn3.bias    |      [200]       |  200   |
|  layers.6.conv1.weight  | [400, 128, 1, 1] | 51200  |
|   layers.6.bn1.weight   |      [400]       |  400   |
|    layers.6.bn1.bias    |      [400]       |  400   |
|  layers.6.prelu1.weight |      [400]       |  400   |
|  layers.6.conv2.weight  |  [400, 1, 3, 3]  |  3600  |
|   layers.6.bn2.weight   |      [400]       |  400   |
|    layers.6.bn2.bias    |      [400]       |  400   |
|  layers.6.prelu2.weight |      [400]       |  400   |
|  layers.6.conv3.weight  | [200, 400, 1, 1] | 80000  |
|   layers.6.bn3.weight   |      [200]       |  200   |
|    layers.6.bn3.bias    |      [200]       |  200   |
|  layers.7.conv1.weight  | [400, 128, 1, 1] | 51200  |
|   layers.7.bn1.weight   |      [400]       |  400   |
|    layers.7.bn1.bias    |      [400]       |  400   |
|  layers.7.prelu1.weight |      [400]       |  400   |
|  layers.7.conv2.weight  |  [400, 1, 3, 3]  |  3600  |
|   layers.7.bn2.weight   |      [400]       |  400   |
|    layers.7.bn2.bias    |      [400]       |  400   |
|  layers.7.prelu2.weight |      [400]       |  400   |
|  layers.7.conv3.weight  | [200, 400, 1, 1] | 80000  |
|   layers.7.bn3.weight   |      [200]       |  200   |
|    layers.7.bn3.bias    |      [200]       |  200   |
|  layers.8.conv1.weight  | [400, 128, 1, 1] | 51200  |
|   layers.8.bn1.weight   |      [400]       |  400   |
|    layers.8.bn1.bias    |      [400]       |  400   |
|  layers.8.prelu1.weight |      [400]       |  400   |
|  layers.8.conv2.weight  |  [400, 1, 3, 3]  |  3600  |
|   layers.8.bn2.weight   |      [400]       |  400   |
|    layers.8.bn2.bias    |      [400]       |  400   |
|  layers.8.prelu2.weight |      [400]       |  400   |
|  layers.8.conv3.weight  | [200, 400, 1, 1] | 80000  |
|   layers.8.bn3.weight   |      [200]       |  200   |
|    layers.8.bn3.bias    |      [200]       |  200   |
|  layers.9.conv1.weight  | [400, 128, 1, 1] | 51200  |
|   layers.9.bn1.weight   |      [400]       |  400   |
|    layers.9.bn1.bias    |      [400]       |  400   |
|  layers.9.prelu1.weight |      [400]       |  400   |
|  layers.9.conv2.weight  |  [400, 1, 3, 3]  |  3600  |
|   layers.9.bn2.weight   |      [400]       |  400   |
|    layers.9.bn2.bias    |      [400]       |  400   |
|  layers.9.prelu2.weight |      [400]       |  400   |
|  layers.9.conv3.weight  | [200, 400, 1, 1] | 80000  |
|   layers.9.bn3.weight   |      [200]       |  200   |
|    layers.9.bn3.bias    |      [200]       |  200   |
|  layers.10.conv1.weight | [400, 128, 1, 1] | 51200  |
|   layers.10.bn1.weight  |      [400]       |  400   |
|    layers.10.bn1.bias   |      [400]       |  400   |
| layers.10.prelu1.weight |      [400]       |  400   |
|  layers.10.conv2.weight |  [400, 1, 3, 3]  |  3600  |
|   layers.10.bn2.weight  |      [400]       |  400   |
|    layers.10.bn2.bias   |      [400]       |  400   |
| layers.10.prelu2.weight |      [400]       |  400   |
|  layers.10.conv3.weight | [200, 400, 1, 1] | 80000  |
|   layers.10.bn3.weight  |      [200]       |  200   |
|    layers.10.bn3.bias   |      [200]       |  200   |
|  layers.11.conv1.weight | [400, 128, 1, 1] | 51200  |
|   layers.11.bn1.weight  |      [400]       |  400   |
|    layers.11.bn1.bias   |      [400]       |  400   |
| layers.11.prelu1.weight |      [400]       |  400   |
|  layers.11.conv2.weight |  [400, 1, 3, 3]  |  3600  |
|   layers.11.bn2.weight  |      [400]       |  400   |
|    layers.11.bn2.bias   |      [400]       |  400   |
| layers.11.prelu2.weight |      [400]       |  400   |
|  layers.11.conv3.weight | [200, 400, 1, 1] | 80000  |
|   layers.11.bn3.weight  |      [200]       |  200   |
|    layers.11.bn3.bias   |      [200]       |  200   |
|  layers.12.conv1.weight | [800, 128, 1, 1] | 102400 |
|   layers.12.bn1.weight  |      [800]       |  800   |
|    layers.12.bn1.bias   |      [800]       |  800   |
| layers.12.prelu1.weight |      [800]       |  800   |
|  layers.12.conv2.weight |  [800, 1, 3, 3]  |  7200  |
|   layers.12.bn2.weight  |      [800]       |  800   |
|    layers.12.bn2.bias   |      [800]       |  800   |
| layers.12.prelu2.weight |      [800]       |  800   |
|  layers.12.conv3.weight | [200, 800, 1, 1] | 160000 |
|   layers.12.bn3.weight  |      [200]       |  200   |
|    layers.12.bn3.bias   |      [200]       |  200   |
|  layers.13.conv1.weight | [400, 128, 1, 1] | 51200  |
|   layers.13.bn1.weight  |      [400]       |  400   |
|    layers.13.bn1.bias   |      [400]       |  400   |
| layers.13.prelu1.weight |      [400]       |  400   |
|  layers.13.conv2.weight |  [400, 1, 3, 3]  |  3600  |
|   layers.13.bn2.weight  |      [400]       |  400   |
|    layers.13.bn2.bias   |      [400]       |  400   |
| layers.13.prelu2.weight |      [400]       |  400   |
|  layers.13.conv3.weight | [200, 400, 1, 1] | 80000  |
|   layers.13.bn3.weight  |      [200]       |  200   |
|    layers.13.bn3.bias   |      [200]       |  200   |
|  layers.14.conv1.weight | [400, 128, 1, 1] | 51200  |
|   layers.14.bn1.weight  |      [400]       |  400   |
|    layers.14.bn1.bias   |      [400]       |  400   |
| layers.14.prelu1.weight |      [400]       |  400   |
|  layers.14.conv2.weight |  [400, 1, 3, 3]  |  3600  |
|   layers.14.bn2.weight  |      [400]       |  400   |
|    layers.14.bn2.bias   |      [400]       |  400   |
| layers.14.prelu2.weight |      [400]       |  400   |
|  layers.14.conv3.weight | [200, 400, 1, 1] | 80000  |
|   layers.14.bn3.weight  |      [200]       |  200   |
|    layers.14.bn3.bias   |      [200]       |  200   |
|       conv3.weight      | [512, 128, 1, 1] | 65536  |
|        bn3.weight       |      [512]       |  512   |
|         bn3.bias        |      [512]       |  512   |
|      prelu3.weight      |      [512]       |  512   |
|       conv4.weight      |  [512, 1, 7, 7]  | 25088  |
|        bn4.weight       |      [512]       |  512   |
|         bn4.bias        |      [512]       |  512   |
|      linear.weight      |    [512, 512]    | 262144 |
|       linear.bias       |      [512]       |  512   |
+-------------------------+------------------+--------+
2019-06-21 18:04:32,881 INFO: |===>Number of parameters is: 2030168
2019-06-21 18:08:01,213 INFO: ------------------------number of parameters------------------------

2019-06-21 18:08:01,214 INFO: +-------------------------+-------------------+--------+
|        Param name       |       Shape       |  Dim   |
+-------------------------+-------------------+--------+
|       conv1.weight      |   [64, 3, 3, 3]   |  1728  |
|        bn1.weight       |        [64]       |   64   |
|         bn1.bias        |        [64]       |   64   |
|      prelu1.weight      |        [64]       |   64   |
|       conv2.weight      |   [64, 1, 3, 3]   |  576   |
|        bn2.weight       |        [64]       |   64   |
|         bn2.bias        |        [64]       |   64   |
|      prelu2.weight      |        [64]       |   64   |
|  layers.0.conv1.weight  |  [200, 64, 1, 1]  | 12800  |
|   layers.0.bn1.weight   |       [200]       |  200   |
|    layers.0.bn1.bias    |       [200]       |  200   |
|  layers.0.prelu1.weight |       [200]       |  200   |
|  layers.0.conv2.weight  |   [200, 1, 3, 3]  |  1800  |
|   layers.0.bn2.weight   |       [200]       |  200   |
|    layers.0.bn2.bias    |       [200]       |  200   |
|  layers.0.prelu2.weight |       [200]       |  200   |
|  layers.0.conv3.weight  |  [104, 200, 1, 1] | 20800  |
|   layers.0.bn3.weight   |       [104]       |  104   |
|    layers.0.bn3.bias    |       [104]       |  104   |
|  layers.1.conv1.weight  |  [328, 104, 1, 1] | 34112  |
|   layers.1.bn1.weight   |       [328]       |  328   |
|    layers.1.bn1.bias    |       [328]       |  328   |
|  layers.1.prelu1.weight |       [328]       |  328   |
|  layers.1.conv2.weight  |   [328, 1, 3, 3]  |  2952  |
|   layers.1.bn2.weight   |       [328]       |  328   |
|    layers.1.bn2.bias    |       [328]       |  328   |
|  layers.1.prelu2.weight |       [328]       |  328   |
|  layers.1.conv3.weight  |  [104, 328, 1, 1] | 34112  |
|   layers.1.bn3.weight   |       [104]       |  104   |
|    layers.1.bn3.bias    |       [104]       |  104   |
|  layers.2.conv1.weight  |  [328, 104, 1, 1] | 34112  |
|   layers.2.bn1.weight   |       [328]       |  328   |
|    layers.2.bn1.bias    |       [328]       |  328   |
|  layers.2.prelu1.weight |       [328]       |  328   |
|  layers.2.conv2.weight  |   [328, 1, 3, 3]  |  2952  |
|   layers.2.bn2.weight   |       [328]       |  328   |
|    layers.2.bn2.bias    |       [328]       |  328   |
|  layers.2.prelu2.weight |       [328]       |  328   |
|  layers.2.conv3.weight  |  [104, 328, 1, 1] | 34112  |
|   layers.2.bn3.weight   |       [104]       |  104   |
|    layers.2.bn3.bias    |       [104]       |  104   |
|  layers.3.conv1.weight  |  [328, 104, 1, 1] | 34112  |
|   layers.3.bn1.weight   |       [328]       |  328   |
|    layers.3.bn1.bias    |       [328]       |  328   |
|  layers.3.prelu1.weight |       [328]       |  328   |
|  layers.3.conv2.weight  |   [328, 1, 3, 3]  |  2952  |
|   layers.3.bn2.weight   |       [328]       |  328   |
|    layers.3.bn2.bias    |       [328]       |  328   |
|  layers.3.prelu2.weight |       [328]       |  328   |
|  layers.3.conv3.weight  |  [104, 328, 1, 1] | 34112  |
|   layers.3.bn3.weight   |       [104]       |  104   |
|    layers.3.bn3.bias    |       [104]       |  104   |
|  layers.4.conv1.weight  |  [328, 104, 1, 1] | 34112  |
|   layers.4.bn1.weight   |       [328]       |  328   |
|    layers.4.bn1.bias    |       [328]       |  328   |
|  layers.4.prelu1.weight |       [328]       |  328   |
|  layers.4.conv2.weight  |   [328, 1, 3, 3]  |  2952  |
|   layers.4.bn2.weight   |       [328]       |  328   |
|    layers.4.bn2.bias    |       [328]       |  328   |
|  layers.4.prelu2.weight |       [328]       |  328   |
|  layers.4.conv3.weight  |  [104, 328, 1, 1] | 34112  |
|   layers.4.bn3.weight   |       [104]       |  104   |
|    layers.4.bn3.bias    |       [104]       |  104   |
|  layers.5.conv1.weight  |  [656, 104, 1, 1] | 68224  |
|   layers.5.bn1.weight   |       [656]       |  656   |
|    layers.5.bn1.bias    |       [656]       |  656   |
|  layers.5.prelu1.weight |       [656]       |  656   |
|  layers.5.conv2.weight  |   [656, 1, 3, 3]  |  5904  |
|   layers.5.bn2.weight   |       [656]       |  656   |
|    layers.5.bn2.bias    |       [656]       |  656   |
|  layers.5.prelu2.weight |       [656]       |  656   |
|  layers.5.conv3.weight  |  [200, 656, 1, 1] | 131200 |
|   layers.5.bn3.weight   |       [200]       |  200   |
|    layers.5.bn3.bias    |       [200]       |  200   |
|  layers.6.conv1.weight  |  [624, 200, 1, 1] | 124800 |
|   layers.6.bn1.weight   |       [624]       |  624   |
|    layers.6.bn1.bias    |       [624]       |  624   |
|  layers.6.prelu1.weight |       [624]       |  624   |
|  layers.6.conv2.weight  |   [624, 1, 3, 3]  |  5616  |
|   layers.6.bn2.weight   |       [624]       |  624   |
|    layers.6.bn2.bias    |       [624]       |  624   |
|  layers.6.prelu2.weight |       [624]       |  624   |
|  layers.6.conv3.weight  |  [200, 624, 1, 1] | 124800 |
|   layers.6.bn3.weight   |       [200]       |  200   |
|    layers.6.bn3.bias    |       [200]       |  200   |
|  layers.7.conv1.weight  |  [624, 200, 1, 1] | 124800 |
|   layers.7.bn1.weight   |       [624]       |  624   |
|    layers.7.bn1.bias    |       [624]       |  624   |
|  layers.7.prelu1.weight |       [624]       |  624   |
|  layers.7.conv2.weight  |   [624, 1, 3, 3]  |  5616  |
|   layers.7.bn2.weight   |       [624]       |  624   |
|    layers.7.bn2.bias    |       [624]       |  624   |
|  layers.7.prelu2.weight |       [624]       |  624   |
|  layers.7.conv3.weight  |  [200, 624, 1, 1] | 124800 |
|   layers.7.bn3.weight   |       [200]       |  200   |
|    layers.7.bn3.bias    |       [200]       |  200   |
|  layers.8.conv1.weight  |  [624, 200, 1, 1] | 124800 |
|   layers.8.bn1.weight   |       [624]       |  624   |
|    layers.8.bn1.bias    |       [624]       |  624   |
|  layers.8.prelu1.weight |       [624]       |  624   |
|  layers.8.conv2.weight  |   [624, 1, 3, 3]  |  5616  |
|   layers.8.bn2.weight   |       [624]       |  624   |
|    layers.8.bn2.bias    |       [624]       |  624   |
|  layers.8.prelu2.weight |       [624]       |  624   |
|  layers.8.conv3.weight  |  [200, 624, 1, 1] | 124800 |
|   layers.8.bn3.weight   |       [200]       |  200   |
|    layers.8.bn3.bias    |       [200]       |  200   |
|  layers.9.conv1.weight  |  [624, 200, 1, 1] | 124800 |
|   layers.9.bn1.weight   |       [624]       |  624   |
|    layers.9.bn1.bias    |       [624]       |  624   |
|  layers.9.prelu1.weight |       [624]       |  624   |
|  layers.9.conv2.weight  |   [624, 1, 3, 3]  |  5616  |
|   layers.9.bn2.weight   |       [624]       |  624   |
|    layers.9.bn2.bias    |       [624]       |  624   |
|  layers.9.prelu2.weight |       [624]       |  624   |
|  layers.9.conv3.weight  |  [200, 624, 1, 1] | 124800 |
|   layers.9.bn3.weight   |       [200]       |  200   |
|    layers.9.bn3.bias    |       [200]       |  200   |
|  layers.10.conv1.weight |  [624, 200, 1, 1] | 124800 |
|   layers.10.bn1.weight  |       [624]       |  624   |
|    layers.10.bn1.bias   |       [624]       |  624   |
| layers.10.prelu1.weight |       [624]       |  624   |
|  layers.10.conv2.weight |   [624, 1, 3, 3]  |  5616  |
|   layers.10.bn2.weight  |       [624]       |  624   |
|    layers.10.bn2.bias   |       [624]       |  624   |
| layers.10.prelu2.weight |       [624]       |  624   |
|  layers.10.conv3.weight |  [200, 624, 1, 1] | 124800 |
|   layers.10.bn3.weight  |       [200]       |  200   |
|    layers.10.bn3.bias   |       [200]       |  200   |
|  layers.11.conv1.weight |  [624, 200, 1, 1] | 124800 |
|   layers.11.bn1.weight  |       [624]       |  624   |
|    layers.11.bn1.bias   |       [624]       |  624   |
| layers.11.prelu1.weight |       [624]       |  624   |
|  layers.11.conv2.weight |   [624, 1, 3, 3]  |  5616  |
|   layers.11.bn2.weight  |       [624]       |  624   |
|    layers.11.bn2.bias   |       [624]       |  624   |
| layers.11.prelu2.weight |       [624]       |  624   |
|  layers.11.conv3.weight |  [200, 624, 1, 1] | 124800 |
|   layers.11.bn3.weight  |       [200]       |  200   |
|    layers.11.bn3.bias   |       [200]       |  200   |
|  layers.12.conv1.weight | [1248, 200, 1, 1] | 249600 |
|   layers.12.bn1.weight  |       [1248]      |  1248  |
|    layers.12.bn1.bias   |       [1248]      |  1248  |
| layers.12.prelu1.weight |       [1248]      |  1248  |
|  layers.12.conv2.weight |  [1248, 1, 3, 3]  | 11232  |
|   layers.12.bn2.weight  |       [1248]      |  1248  |
|    layers.12.bn2.bias   |       [1248]      |  1248  |
| layers.12.prelu2.weight |       [1248]      |  1248  |
|  layers.12.conv3.weight | [200, 1248, 1, 1] | 249600 |
|   layers.12.bn3.weight  |       [200]       |  200   |
|    layers.12.bn3.bias   |       [200]       |  200   |
|  layers.13.conv1.weight |  [624, 200, 1, 1] | 124800 |
|   layers.13.bn1.weight  |       [624]       |  624   |
|    layers.13.bn1.bias   |       [624]       |  624   |
| layers.13.prelu1.weight |       [624]       |  624   |
|  layers.13.conv2.weight |   [624, 1, 3, 3]  |  5616  |
|   layers.13.bn2.weight  |       [624]       |  624   |
|    layers.13.bn2.bias   |       [624]       |  624   |
| layers.13.prelu2.weight |       [624]       |  624   |
|  layers.13.conv3.weight |  [200, 624, 1, 1] | 124800 |
|   layers.13.bn3.weight  |       [200]       |  200   |
|    layers.13.bn3.bias   |       [200]       |  200   |
|  layers.14.conv1.weight |  [624, 200, 1, 1] | 124800 |
|   layers.14.bn1.weight  |       [624]       |  624   |
|    layers.14.bn1.bias   |       [624]       |  624   |
| layers.14.prelu1.weight |       [624]       |  624   |
|  layers.14.conv2.weight |   [624, 1, 3, 3]  |  5616  |
|   layers.14.bn2.weight  |       [624]       |  624   |
|    layers.14.bn2.bias   |       [624]       |  624   |
| layers.14.prelu2.weight |       [624]       |  624   |
|  layers.14.conv3.weight |  [200, 624, 1, 1] | 124800 |
|   layers.14.bn3.weight  |       [200]       |  200   |
|    layers.14.bn3.bias   |       [200]       |  200   |
|       conv3.weight      |  [512, 200, 1, 1] | 102400 |
|        bn3.weight       |       [512]       |  512   |
|         bn3.bias        |       [512]       |  512   |
|      prelu3.weight      |       [512]       |  512   |
|       conv4.weight      |   [512, 1, 7, 7]  | 25088  |
|        bn4.weight       |       [512]       |  512   |
|         bn4.bias        |       [512]       |  512   |
|      linear.weight      |     [512, 512]    | 262144 |
|       linear.bias       |       [512]       |  512   |
+-------------------------+-------------------+--------+
2019-06-21 18:08:01,234 INFO: |===>Number of parameters is: 3528472
2019-06-21 18:08:01,724 INFO: ------------------------FLOPs------------------------

2019-06-21 18:08:01,724 INFO: +-----------------+-------------------+-----------+------------+-------------------+-----------+------------------------+
|      Layer      |    Weight Shape   | #Channels | Bias Shape |    Output Shape   |   FLOPs   |       Percentage       |
+-----------------+-------------------+-----------+------------+-------------------+-----------+------------------------+
|      conv1      |   [64, 3, 3, 3]   |     3     |    [0]     |  [1, 64, 56, 56]  |  10637312 |  0.007009972434199041  |
|      conv2      |   [64, 1, 3, 3]   |     64    |    [0]     |  [1, 64, 56, 56]  |  3609536  |  0.002378678735779215  |
|  layers.0.conv1 |  [200, 64, 1, 1]  |     64    |    [0]     |  [1, 200, 56, 56] |  79654400 |  0.052492128487221595  |
|  layers.0.conv2 |   [200, 1, 3, 3]  |    200    |    [0]     |  [1, 200, 28, 28] |  2821616  | 0.0018594406537943949  |
|  layers.0.conv3 |  [104, 200, 1, 1] |    200    |    [0]     |  [1, 104, 28, 28] |  32532864 |  0.021439107910489637  |
|  layers.1.conv1 |  [328, 104, 1, 1] |    104    |    [0]     |  [1, 328, 28, 28] |  53230464 |  0.03507879484024013   |
|  layers.1.conv2 |   [328, 1, 3, 3]  |    328    |    [0]     |  [1, 328, 28, 28] |  4627952  | 0.0030498133312998926  |
|  layers.1.conv3 |  [104, 328, 1, 1] |    328    |    [0]     |  [1, 104, 28, 28] |  53406080 |  0.035194525517219834  |
|  layers.2.conv1 |  [328, 104, 1, 1] |    104    |    [0]     |  [1, 328, 28, 28] |  53230464 |  0.03507879484024013   |
|  layers.2.conv2 |   [328, 1, 3, 3]  |    328    |    [0]     |  [1, 328, 28, 28] |  4627952  | 0.0030498133312998926  |
|  layers.2.conv3 |  [104, 328, 1, 1] |    328    |    [0]     |  [1, 104, 28, 28] |  53406080 |  0.035194525517219834  |
|  layers.3.conv1 |  [328, 104, 1, 1] |    104    |    [0]     |  [1, 328, 28, 28] |  53230464 |  0.03507879484024013   |
|  layers.3.conv2 |   [328, 1, 3, 3]  |    328    |    [0]     |  [1, 328, 28, 28] |  4627952  | 0.0030498133312998926  |
|  layers.3.conv3 |  [104, 328, 1, 1] |    328    |    [0]     |  [1, 104, 28, 28] |  53406080 |  0.035194525517219834  |
|  layers.4.conv1 |  [328, 104, 1, 1] |    104    |    [0]     |  [1, 328, 28, 28] |  53230464 |  0.03507879484024013   |
|  layers.4.conv2 |   [328, 1, 3, 3]  |    328    |    [0]     |  [1, 328, 28, 28] |  4627952  | 0.0030498133312998926  |
|  layers.4.conv3 |  [104, 328, 1, 1] |    328    |    [0]     |  [1, 104, 28, 28] |  53406080 |  0.035194525517219834  |
|  layers.5.conv1 |  [656, 104, 1, 1] |    104    |    [0]     |  [1, 656, 28, 28] | 106460928 |  0.07015758968048026   |
|  layers.5.conv2 |   [656, 1, 3, 3]  |    656    |    [0]     |  [1, 656, 14, 14] |  2314172  | 0.0015250358293519325  |
|  layers.5.conv3 |  [200, 656, 1, 1] |    656    |    [0]     |  [1, 200, 14, 14] |  51391200 |  0.033866722660800944  |
|  layers.6.conv1 |  [624, 200, 1, 1] |    200    |    [0]     |  [1, 624, 14, 14] |  48799296 |  0.03215866186573446   |
|  layers.6.conv2 |   [624, 1, 3, 3]  |    624    |    [0]     |  [1, 624, 14, 14] |  2201276  | 0.0014506375370078389  |
|  layers.6.conv3 |  [200, 624, 1, 1] |    624    |    [0]     |  [1, 200, 14, 14] |  48882400 |  0.03221342727537664   |
|  layers.7.conv1 |  [624, 200, 1, 1] |    200    |    [0]     |  [1, 624, 14, 14] |  48799296 |  0.03215866186573446   |
|  layers.7.conv2 |   [624, 1, 3, 3]  |    624    |    [0]     |  [1, 624, 14, 14] |  2201276  | 0.0014506375370078389  |
|  layers.7.conv3 |  [200, 624, 1, 1] |    624    |    [0]     |  [1, 200, 14, 14] |  48882400 |  0.03221342727537664   |
|  layers.8.conv1 |  [624, 200, 1, 1] |    200    |    [0]     |  [1, 624, 14, 14] |  48799296 |  0.03215866186573446   |
|  layers.8.conv2 |   [624, 1, 3, 3]  |    624    |    [0]     |  [1, 624, 14, 14] |  2201276  | 0.0014506375370078389  |
|  layers.8.conv3 |  [200, 624, 1, 1] |    624    |    [0]     |  [1, 200, 14, 14] |  48882400 |  0.03221342727537664   |
|  layers.9.conv1 |  [624, 200, 1, 1] |    200    |    [0]     |  [1, 624, 14, 14] |  48799296 |  0.03215866186573446   |
|  layers.9.conv2 |   [624, 1, 3, 3]  |    624    |    [0]     |  [1, 624, 14, 14] |  2201276  | 0.0014506375370078389  |
|  layers.9.conv3 |  [200, 624, 1, 1] |    624    |    [0]     |  [1, 200, 14, 14] |  48882400 |  0.03221342727537664   |
| layers.10.conv1 |  [624, 200, 1, 1] |    200    |    [0]     |  [1, 624, 14, 14] |  48799296 |  0.03215866186573446   |
| layers.10.conv2 |   [624, 1, 3, 3]  |    624    |    [0]     |  [1, 624, 14, 14] |  2201276  | 0.0014506375370078389  |
| layers.10.conv3 |  [200, 624, 1, 1] |    624    |    [0]     |  [1, 200, 14, 14] |  48882400 |  0.03221342727537664   |
| layers.11.conv1 |  [624, 200, 1, 1] |    200    |    [0]     |  [1, 624, 14, 14] |  48799296 |  0.03215866186573446   |
| layers.11.conv2 |   [624, 1, 3, 3]  |    624    |    [0]     |  [1, 624, 14, 14] |  2201276  | 0.0014506375370078389  |
| layers.11.conv3 |  [200, 624, 1, 1] |    624    |    [0]     |  [1, 200, 14, 14] |  48882400 |  0.03221342727537664   |
| layers.12.conv1 | [1248, 200, 1, 1] |    200    |    [0]     | [1, 1248, 14, 14] |  97598592 |  0.06431732373146892   |
| layers.12.conv2 |  [1248, 1, 3, 3]  |    1248   |    [0]     |  [1, 1248, 7, 7]  |  1100687  |  0.000725351059429416  |
| layers.12.conv3 | [200, 1248, 1, 1] |    1248   |    [0]     |   [1, 200, 7, 7]  |  24451000 |  0.016113171822787632  |
| layers.13.conv1 |  [624, 200, 1, 1] |    200    |    [0]     |   [1, 624, 7, 7]  |  12199824 |  0.008039665466433615  |
| layers.13.conv2 |   [624, 1, 3, 3]  |    624    |    [0]     |   [1, 624, 7, 7]  |   550319  | 0.0003626593842519597  |
| layers.13.conv3 |  [200, 624, 1, 1] |    624    |    [0]     |   [1, 200, 7, 7]  |  12220600 |  0.00805335681884416   |
| layers.14.conv1 |  [624, 200, 1, 1] |    200    |    [0]     |   [1, 624, 7, 7]  |  12199824 |  0.008039665466433615  |
| layers.14.conv2 |   [624, 1, 3, 3]  |    624    |    [0]     |   [1, 624, 7, 7]  |   550319  | 0.0003626593842519597  |
| layers.14.conv3 |  [200, 624, 1, 1] |    624    |    [0]     |   [1, 200, 7, 7]  |  12220600 |  0.00805335681884416   |
|      conv3      |  [512, 200, 1, 1] |    200    |    [0]     |   [1, 512, 7, 7]  |  10010112 |  0.006596648587842966  |
|      conv4      |   [512, 1, 7, 7]  |    512    |    [0]     |   [1, 512, 1, 1]  |   50175   | 3.3065248710006524e-05 |
|      linear     |     [512, 512]    |    512    |   [512]    |      [1, 512]     |   524288  | 0.00034550499483152765 |
+-----------------+-------------------+-----------+------------+-------------------+-----------+------------------------+
2019-06-21 18:08:01,739 INFO: |===>Total FLOPs: 1.517454e+09
2019-06-21 18:08:09,041 INFO: ------------------------number of parameters------------------------

2019-06-21 18:08:09,042 INFO: +-------------------------+------------------+--------+
|        Param name       |      Shape       |  Dim   |
+-------------------------+------------------+--------+
|       conv1.weight      |  [64, 3, 3, 3]   |  1728  |
|        bn1.weight       |       [64]       |   64   |
|         bn1.bias        |       [64]       |   64   |
|      prelu1.weight      |       [64]       |   64   |
|       conv2.weight      |  [64, 1, 3, 3]   |  576   |
|        bn2.weight       |       [64]       |   64   |
|         bn2.bias        |       [64]       |   64   |
|      prelu2.weight      |       [64]       |   64   |
|  layers.0.conv1.weight  | [128, 64, 1, 1]  |  8192  |
|   layers.0.bn1.weight   |      [128]       |  128   |
|    layers.0.bn1.bias    |      [128]       |  128   |
|  layers.0.prelu1.weight |      [128]       |  128   |
|  layers.0.conv2.weight  |  [128, 1, 3, 3]  |  1152  |
|   layers.0.bn2.weight   |      [128]       |  128   |
|    layers.0.bn2.bias    |      [128]       |  128   |
|  layers.0.prelu2.weight |      [128]       |  128   |
|  layers.0.conv3.weight  | [64, 128, 1, 1]  |  8192  |
|   layers.0.bn3.weight   |       [64]       |   64   |
|    layers.0.bn3.bias    |       [64]       |   64   |
|  layers.1.conv1.weight  | [128, 64, 1, 1]  |  8192  |
|   layers.1.bn1.weight   |      [128]       |  128   |
|    layers.1.bn1.bias    |      [128]       |  128   |
|  layers.1.prelu1.weight |      [128]       |  128   |
|  layers.1.conv2.weight  |  [128, 1, 3, 3]  |  1152  |
|   layers.1.bn2.weight   |      [128]       |  128   |
|    layers.1.bn2.bias    |      [128]       |  128   |
|  layers.1.prelu2.weight |      [128]       |  128   |
|  layers.1.conv3.weight  | [64, 128, 1, 1]  |  8192  |
|   layers.1.bn3.weight   |       [64]       |   64   |
|    layers.1.bn3.bias    |       [64]       |   64   |
|  layers.2.conv1.weight  | [128, 64, 1, 1]  |  8192  |
|   layers.2.bn1.weight   |      [128]       |  128   |
|    layers.2.bn1.bias    |      [128]       |  128   |
|  layers.2.prelu1.weight |      [128]       |  128   |
|  layers.2.conv2.weight  |  [128, 1, 3, 3]  |  1152  |
|   layers.2.bn2.weight   |      [128]       |  128   |
|    layers.2.bn2.bias    |      [128]       |  128   |
|  layers.2.prelu2.weight |      [128]       |  128   |
|  layers.2.conv3.weight  | [64, 128, 1, 1]  |  8192  |
|   layers.2.bn3.weight   |       [64]       |   64   |
|    layers.2.bn3.bias    |       [64]       |   64   |
|  layers.3.conv1.weight  | [128, 64, 1, 1]  |  8192  |
|   layers.3.bn1.weight   |      [128]       |  128   |
|    layers.3.bn1.bias    |      [128]       |  128   |
|  layers.3.prelu1.weight |      [128]       |  128   |
|  layers.3.conv2.weight  |  [128, 1, 3, 3]  |  1152  |
|   layers.3.bn2.weight   |      [128]       |  128   |
|    layers.3.bn2.bias    |      [128]       |  128   |
|  layers.3.prelu2.weight |      [128]       |  128   |
|  layers.3.conv3.weight  | [64, 128, 1, 1]  |  8192  |
|   layers.3.bn3.weight   |       [64]       |   64   |
|    layers.3.bn3.bias    |       [64]       |   64   |
|  layers.4.conv1.weight  | [128, 64, 1, 1]  |  8192  |
|   layers.4.bn1.weight   |      [128]       |  128   |
|    layers.4.bn1.bias    |      [128]       |  128   |
|  layers.4.prelu1.weight |      [128]       |  128   |
|  layers.4.conv2.weight  |  [128, 1, 3, 3]  |  1152  |
|   layers.4.bn2.weight   |      [128]       |  128   |
|    layers.4.bn2.bias    |      [128]       |  128   |
|  layers.4.prelu2.weight |      [128]       |  128   |
|  layers.4.conv3.weight  | [64, 128, 1, 1]  |  8192  |
|   layers.4.bn3.weight   |       [64]       |   64   |
|    layers.4.bn3.bias    |       [64]       |   64   |
|  layers.5.conv1.weight  | [256, 64, 1, 1]  | 16384  |
|   layers.5.bn1.weight   |      [256]       |  256   |
|    layers.5.bn1.bias    |      [256]       |  256   |
|  layers.5.prelu1.weight |      [256]       |  256   |
|  layers.5.conv2.weight  |  [256, 1, 3, 3]  |  2304  |
|   layers.5.bn2.weight   |      [256]       |  256   |
|    layers.5.bn2.bias    |      [256]       |  256   |
|  layers.5.prelu2.weight |      [256]       |  256   |
|  layers.5.conv3.weight  | [128, 256, 1, 1] | 32768  |
|   layers.5.bn3.weight   |      [128]       |  128   |
|    layers.5.bn3.bias    |      [128]       |  128   |
|  layers.6.conv1.weight  | [256, 128, 1, 1] | 32768  |
|   layers.6.bn1.weight   |      [256]       |  256   |
|    layers.6.bn1.bias    |      [256]       |  256   |
|  layers.6.prelu1.weight |      [256]       |  256   |
|  layers.6.conv2.weight  |  [256, 1, 3, 3]  |  2304  |
|   layers.6.bn2.weight   |      [256]       |  256   |
|    layers.6.bn2.bias    |      [256]       |  256   |
|  layers.6.prelu2.weight |      [256]       |  256   |
|  layers.6.conv3.weight  | [128, 256, 1, 1] | 32768  |
|   layers.6.bn3.weight   |      [128]       |  128   |
|    layers.6.bn3.bias    |      [128]       |  128   |
|  layers.7.conv1.weight  | [256, 128, 1, 1] | 32768  |
|   layers.7.bn1.weight   |      [256]       |  256   |
|    layers.7.bn1.bias    |      [256]       |  256   |
|  layers.7.prelu1.weight |      [256]       |  256   |
|  layers.7.conv2.weight  |  [256, 1, 3, 3]  |  2304  |
|   layers.7.bn2.weight   |      [256]       |  256   |
|    layers.7.bn2.bias    |      [256]       |  256   |
|  layers.7.prelu2.weight |      [256]       |  256   |
|  layers.7.conv3.weight  | [128, 256, 1, 1] | 32768  |
|   layers.7.bn3.weight   |      [128]       |  128   |
|    layers.7.bn3.bias    |      [128]       |  128   |
|  layers.8.conv1.weight  | [256, 128, 1, 1] | 32768  |
|   layers.8.bn1.weight   |      [256]       |  256   |
|    layers.8.bn1.bias    |      [256]       |  256   |
|  layers.8.prelu1.weight |      [256]       |  256   |
|  layers.8.conv2.weight  |  [256, 1, 3, 3]  |  2304  |
|   layers.8.bn2.weight   |      [256]       |  256   |
|    layers.8.bn2.bias    |      [256]       |  256   |
|  layers.8.prelu2.weight |      [256]       |  256   |
|  layers.8.conv3.weight  | [128, 256, 1, 1] | 32768  |
|   layers.8.bn3.weight   |      [128]       |  128   |
|    layers.8.bn3.bias    |      [128]       |  128   |
|  layers.9.conv1.weight  | [256, 128, 1, 1] | 32768  |
|   layers.9.bn1.weight   |      [256]       |  256   |
|    layers.9.bn1.bias    |      [256]       |  256   |
|  layers.9.prelu1.weight |      [256]       |  256   |
|  layers.9.conv2.weight  |  [256, 1, 3, 3]  |  2304  |
|   layers.9.bn2.weight   |      [256]       |  256   |
|    layers.9.bn2.bias    |      [256]       |  256   |
|  layers.9.prelu2.weight |      [256]       |  256   |
|  layers.9.conv3.weight  | [128, 256, 1, 1] | 32768  |
|   layers.9.bn3.weight   |      [128]       |  128   |
|    layers.9.bn3.bias    |      [128]       |  128   |
|  layers.10.conv1.weight | [256, 128, 1, 1] | 32768  |
|   layers.10.bn1.weight  |      [256]       |  256   |
|    layers.10.bn1.bias   |      [256]       |  256   |
| layers.10.prelu1.weight |      [256]       |  256   |
|  layers.10.conv2.weight |  [256, 1, 3, 3]  |  2304  |
|   layers.10.bn2.weight  |      [256]       |  256   |
|    layers.10.bn2.bias   |      [256]       |  256   |
| layers.10.prelu2.weight |      [256]       |  256   |
|  layers.10.conv3.weight | [128, 256, 1, 1] | 32768  |
|   layers.10.bn3.weight  |      [128]       |  128   |
|    layers.10.bn3.bias   |      [128]       |  128   |
|  layers.11.conv1.weight | [256, 128, 1, 1] | 32768  |
|   layers.11.bn1.weight  |      [256]       |  256   |
|    layers.11.bn1.bias   |      [256]       |  256   |
| layers.11.prelu1.weight |      [256]       |  256   |
|  layers.11.conv2.weight |  [256, 1, 3, 3]  |  2304  |
|   layers.11.bn2.weight  |      [256]       |  256   |
|    layers.11.bn2.bias   |      [256]       |  256   |
| layers.11.prelu2.weight |      [256]       |  256   |
|  layers.11.conv3.weight | [128, 256, 1, 1] | 32768  |
|   layers.11.bn3.weight  |      [128]       |  128   |
|    layers.11.bn3.bias   |      [128]       |  128   |
|  layers.12.conv1.weight | [512, 128, 1, 1] | 65536  |
|   layers.12.bn1.weight  |      [512]       |  512   |
|    layers.12.bn1.bias   |      [512]       |  512   |
| layers.12.prelu1.weight |      [512]       |  512   |
|  layers.12.conv2.weight |  [512, 1, 3, 3]  |  4608  |
|   layers.12.bn2.weight  |      [512]       |  512   |
|    layers.12.bn2.bias   |      [512]       |  512   |
| layers.12.prelu2.weight |      [512]       |  512   |
|  layers.12.conv3.weight | [128, 512, 1, 1] | 65536  |
|   layers.12.bn3.weight  |      [128]       |  128   |
|    layers.12.bn3.bias   |      [128]       |  128   |
|  layers.13.conv1.weight | [256, 128, 1, 1] | 32768  |
|   layers.13.bn1.weight  |      [256]       |  256   |
|    layers.13.bn1.bias   |      [256]       |  256   |
| layers.13.prelu1.weight |      [256]       |  256   |
|  layers.13.conv2.weight |  [256, 1, 3, 3]  |  2304  |
|   layers.13.bn2.weight  |      [256]       |  256   |
|    layers.13.bn2.bias   |      [256]       |  256   |
| layers.13.prelu2.weight |      [256]       |  256   |
|  layers.13.conv3.weight | [128, 256, 1, 1] | 32768  |
|   layers.13.bn3.weight  |      [128]       |  128   |
|    layers.13.bn3.bias   |      [128]       |  128   |
|  layers.14.conv1.weight | [256, 128, 1, 1] | 32768  |
|   layers.14.bn1.weight  |      [256]       |  256   |
|    layers.14.bn1.bias   |      [256]       |  256   |
| layers.14.prelu1.weight |      [256]       |  256   |
|  layers.14.conv2.weight |  [256, 1, 3, 3]  |  2304  |
|   layers.14.bn2.weight  |      [256]       |  256   |
|    layers.14.bn2.bias   |      [256]       |  256   |
| layers.14.prelu2.weight |      [256]       |  256   |
|  layers.14.conv3.weight | [128, 256, 1, 1] | 32768  |
|   layers.14.bn3.weight  |      [128]       |  128   |
|    layers.14.bn3.bias   |      [128]       |  128   |
|       conv3.weight      | [512, 128, 1, 1] | 65536  |
|        bn3.weight       |      [512]       |  512   |
|         bn3.bias        |      [512]       |  512   |
|      prelu3.weight      |      [512]       |  512   |
|       conv4.weight      |  [512, 1, 7, 7]  | 25088  |
|        bn4.weight       |      [512]       |  512   |
|         bn4.bias        |      [512]       |  512   |
|      linear.weight      |    [512, 512]    | 262144 |
|       linear.bias       |      [512]       |  512   |
+-------------------------+------------------+--------+
2019-06-21 18:08:09,061 INFO: |===>Number of parameters is: 1200000
2019-06-21 18:08:09,293 INFO: ------------------------FLOPs------------------------

2019-06-21 18:08:09,294 INFO: +-----------------+------------------+-----------+------------+------------------+----------+------------------------+
|      Layer      |   Weight Shape   | #Channels | Bias Shape |   Output Shape   |  FLOPs   |       Percentage       |
+-----------------+------------------+-----------+------------+------------------+----------+------------------------+
|      conv1      |  [64, 3, 3, 3]   |     3     |    [0]     | [1, 64, 56, 56]  | 10637312 |  0.02416394169065014   |
|      conv2      |  [64, 1, 3, 3]   |     64    |    [0]     | [1, 64, 56, 56]  | 3609536  |  0.008199497902694078  |
|  layers.0.conv1 | [128, 64, 1, 1]  |     64    |    [0]     | [1, 128, 56, 56] | 50978816 |  0.11580455074387047   |
|  layers.0.conv2 |  [128, 1, 3, 3]  |    128    |    [0]     | [1, 128, 28, 28] | 1805552  |  0.004101529902238154  |
|  layers.0.conv3 | [64, 128, 1, 1]  |    128    |    [0]     | [1, 64, 28, 28]  | 12794880 |  0.029065118542998987  |
|  layers.1.conv1 | [128, 64, 1, 1]  |     64    |    [0]     | [1, 128, 28, 28] | 12744704 |  0.028951137685967618  |
|  layers.1.conv2 |  [128, 1, 3, 3]  |    128    |    [0]     | [1, 128, 28, 28] | 1805552  |  0.004101529902238154  |
|  layers.1.conv3 | [64, 128, 1, 1]  |    128    |    [0]     | [1, 64, 28, 28]  | 12794880 |  0.029065118542998987  |
|  layers.2.conv1 | [128, 64, 1, 1]  |     64    |    [0]     | [1, 128, 28, 28] | 12744704 |  0.028951137685967618  |
|  layers.2.conv2 |  [128, 1, 3, 3]  |    128    |    [0]     | [1, 128, 28, 28] | 1805552  |  0.004101529902238154  |
|  layers.2.conv3 | [64, 128, 1, 1]  |    128    |    [0]     | [1, 64, 28, 28]  | 12794880 |  0.029065118542998987  |
|  layers.3.conv1 | [128, 64, 1, 1]  |     64    |    [0]     | [1, 128, 28, 28] | 12744704 |  0.028951137685967618  |
|  layers.3.conv2 |  [128, 1, 3, 3]  |    128    |    [0]     | [1, 128, 28, 28] | 1805552  |  0.004101529902238154  |
|  layers.3.conv3 | [64, 128, 1, 1]  |    128    |    [0]     | [1, 64, 28, 28]  | 12794880 |  0.029065118542998987  |
|  layers.4.conv1 | [128, 64, 1, 1]  |     64    |    [0]     | [1, 128, 28, 28] | 12744704 |  0.028951137685967618  |
|  layers.4.conv2 |  [128, 1, 3, 3]  |    128    |    [0]     | [1, 128, 28, 28] | 1805552  |  0.004101529902238154  |
|  layers.4.conv3 | [64, 128, 1, 1]  |    128    |    [0]     | [1, 64, 28, 28]  | 12794880 |  0.029065118542998987  |
|  layers.5.conv1 | [256, 64, 1, 1]  |     64    |    [0]     | [1, 256, 28, 28] | 25489408 |  0.057902275371935236  |
|  layers.5.conv2 |  [256, 1, 3, 3]  |    256    |    [0]     | [1, 256, 14, 14] |  902972  | 0.0020512101888418557  |
|  layers.5.conv3 | [128, 256, 1, 1] |    256    |    [0]     | [1, 128, 14, 14] | 12819968 |  0.02912210897151467   |
|  layers.6.conv1 | [256, 128, 1, 1] |    128    |    [0]     | [1, 256, 14, 14] | 12794880 |  0.029065118542998987  |
|  layers.6.conv2 |  [256, 1, 3, 3]  |    256    |    [0]     | [1, 256, 14, 14] |  902972  | 0.0020512101888418557  |
|  layers.6.conv3 | [128, 256, 1, 1] |    256    |    [0]     | [1, 128, 14, 14] | 12819968 |  0.02912210897151467   |
|  layers.7.conv1 | [256, 128, 1, 1] |    128    |    [0]     | [1, 256, 14, 14] | 12794880 |  0.029065118542998987  |
|  layers.7.conv2 |  [256, 1, 3, 3]  |    256    |    [0]     | [1, 256, 14, 14] |  902972  | 0.0020512101888418557  |
|  layers.7.conv3 | [128, 256, 1, 1] |    256    |    [0]     | [1, 128, 14, 14] | 12819968 |  0.02912210897151467   |
|  layers.8.conv1 | [256, 128, 1, 1] |    128    |    [0]     | [1, 256, 14, 14] | 12794880 |  0.029065118542998987  |
|  layers.8.conv2 |  [256, 1, 3, 3]  |    256    |    [0]     | [1, 256, 14, 14] |  902972  | 0.0020512101888418557  |
|  layers.8.conv3 | [128, 256, 1, 1] |    256    |    [0]     | [1, 128, 14, 14] | 12819968 |  0.02912210897151467   |
|  layers.9.conv1 | [256, 128, 1, 1] |    128    |    [0]     | [1, 256, 14, 14] | 12794880 |  0.029065118542998987  |
|  layers.9.conv2 |  [256, 1, 3, 3]  |    256    |    [0]     | [1, 256, 14, 14] |  902972  | 0.0020512101888418557  |
|  layers.9.conv3 | [128, 256, 1, 1] |    256    |    [0]     | [1, 128, 14, 14] | 12819968 |  0.02912210897151467   |
| layers.10.conv1 | [256, 128, 1, 1] |    128    |    [0]     | [1, 256, 14, 14] | 12794880 |  0.029065118542998987  |
| layers.10.conv2 |  [256, 1, 3, 3]  |    256    |    [0]     | [1, 256, 14, 14] |  902972  | 0.0020512101888418557  |
| layers.10.conv3 | [128, 256, 1, 1] |    256    |    [0]     | [1, 128, 14, 14] | 12819968 |  0.02912210897151467   |
| layers.11.conv1 | [256, 128, 1, 1] |    128    |    [0]     | [1, 256, 14, 14] | 12794880 |  0.029065118542998987  |
| layers.11.conv2 |  [256, 1, 3, 3]  |    256    |    [0]     | [1, 256, 14, 14] |  902972  | 0.0020512101888418557  |
| layers.11.conv3 | [128, 256, 1, 1] |    256    |    [0]     | [1, 128, 14, 14] | 12819968 |  0.02912210897151467   |
| layers.12.conv1 | [512, 128, 1, 1] |    128    |    [0]     | [1, 512, 14, 14] | 25589760 |  0.058130237085997974  |
| layers.12.conv2 |  [512, 1, 3, 3]  |    512    |    [0]     |  [1, 512, 7, 7]  |  451535  | 0.0010257164038516226  |
| layers.12.conv3 | [128, 512, 1, 1] |    512    |    [0]     |  [1, 128, 7, 7]  | 6416256  |  0.014575302092886258  |
| layers.13.conv1 | [256, 128, 1, 1] |    128    |    [0]     |  [1, 256, 7, 7]  | 3198720  |  0.007266279635749747  |
| layers.13.conv2 |  [256, 1, 3, 3]  |    256    |    [0]     |  [1, 256, 7, 7]  |  225743  | 0.0005128025472104639  |
| layers.13.conv3 | [128, 256, 1, 1] |    256    |    [0]     |  [1, 128, 7, 7]  | 3204992  |  0.007280527242878668  |
| layers.14.conv1 | [256, 128, 1, 1] |    128    |    [0]     |  [1, 256, 7, 7]  | 3198720  |  0.007266279635749747  |
| layers.14.conv2 |  [256, 1, 3, 3]  |    256    |    [0]     |  [1, 256, 7, 7]  |  225743  | 0.0005128025472104639  |
| layers.14.conv3 | [128, 256, 1, 1] |    256    |    [0]     |  [1, 128, 7, 7]  | 3204992  |  0.007280527242878668  |
|      conv3      | [512, 128, 1, 1] |    128    |    [0]     |  [1, 512, 7, 7]  | 6397440  |  0.014532559271499493  |
|      conv4      |  [512, 1, 7, 7]  |    512    |    [0]     |  [1, 512, 1, 1]  |  50175   | 0.00011397858541033399 |
|      linear     |    [512, 512]    |    512    |   [512]    |     [1, 512]     |  524288  |  0.001190983648980831  |
+-----------------+------------------+-----------+------------+------------------+----------+------------------------+
2019-06-21 18:08:09,311 INFO: |===>Total FLOPs: 4.402143e+08
2019-06-21 18:08:18,897 INFO: ------------------------number of parameters------------------------

2019-06-21 18:08:18,898 INFO: +-------------------------+-------------------+--------+
|        Param name       |       Shape       |  Dim   |
+-------------------------+-------------------+--------+
|       conv1.weight      |   [64, 3, 3, 3]   |  1728  |
|        bn1.weight       |        [64]       |   64   |
|         bn1.bias        |        [64]       |   64   |
|      prelu1.weight      |        [64]       |   64   |
|       conv2.weight      |   [64, 1, 3, 3]   |  576   |
|        bn2.weight       |        [64]       |   64   |
|         bn2.bias        |        [64]       |   64   |
|      prelu2.weight      |        [64]       |   64   |
|  layers.0.conv1.weight  |  [200, 64, 1, 1]  | 12800  |
|   layers.0.bn1.weight   |       [200]       |  200   |
|    layers.0.bn1.bias    |       [200]       |  200   |
|  layers.0.prelu1.weight |       [200]       |  200   |
|  layers.0.conv2.weight  |   [200, 1, 3, 3]  |  1800  |
|   layers.0.bn2.weight   |       [200]       |  200   |
|    layers.0.bn2.bias    |       [200]       |  200   |
|  layers.0.prelu2.weight |       [200]       |  200   |
|  layers.0.conv3.weight  |  [104, 200, 1, 1] | 20800  |
|   layers.0.bn3.weight   |       [104]       |  104   |
|    layers.0.bn3.bias    |       [104]       |  104   |
|  layers.1.conv1.weight  |  [328, 104, 1, 1] | 34112  |
|   layers.1.bn1.weight   |       [328]       |  328   |
|    layers.1.bn1.bias    |       [328]       |  328   |
|  layers.1.prelu1.weight |       [328]       |  328   |
|  layers.1.conv2.weight  |   [328, 1, 3, 3]  |  2952  |
|   layers.1.bn2.weight   |       [328]       |  328   |
|    layers.1.bn2.bias    |       [328]       |  328   |
|  layers.1.prelu2.weight |       [328]       |  328   |
|  layers.1.conv3.weight  |  [104, 328, 1, 1] | 34112  |
|   layers.1.bn3.weight   |       [104]       |  104   |
|    layers.1.bn3.bias    |       [104]       |  104   |
|  layers.2.conv1.weight  |  [328, 104, 1, 1] | 34112  |
|   layers.2.bn1.weight   |       [328]       |  328   |
|    layers.2.bn1.bias    |       [328]       |  328   |
|  layers.2.prelu1.weight |       [328]       |  328   |
|  layers.2.conv2.weight  |   [328, 1, 3, 3]  |  2952  |
|   layers.2.bn2.weight   |       [328]       |  328   |
|    layers.2.bn2.bias    |       [328]       |  328   |
|  layers.2.prelu2.weight |       [328]       |  328   |
|  layers.2.conv3.weight  |  [104, 328, 1, 1] | 34112  |
|   layers.2.bn3.weight   |       [104]       |  104   |
|    layers.2.bn3.bias    |       [104]       |  104   |
|  layers.3.conv1.weight  |  [328, 104, 1, 1] | 34112  |
|   layers.3.bn1.weight   |       [328]       |  328   |
|    layers.3.bn1.bias    |       [328]       |  328   |
|  layers.3.prelu1.weight |       [328]       |  328   |
|  layers.3.conv2.weight  |   [328, 1, 3, 3]  |  2952  |
|   layers.3.bn2.weight   |       [328]       |  328   |
|    layers.3.bn2.bias    |       [328]       |  328   |
|  layers.3.prelu2.weight |       [328]       |  328   |
|  layers.3.conv3.weight  |  [104, 328, 1, 1] | 34112  |
|   layers.3.bn3.weight   |       [104]       |  104   |
|    layers.3.bn3.bias    |       [104]       |  104   |
|  layers.4.conv1.weight  |  [328, 104, 1, 1] | 34112  |
|   layers.4.bn1.weight   |       [328]       |  328   |
|    layers.4.bn1.bias    |       [328]       |  328   |
|  layers.4.prelu1.weight |       [328]       |  328   |
|  layers.4.conv2.weight  |   [328, 1, 3, 3]  |  2952  |
|   layers.4.bn2.weight   |       [328]       |  328   |
|    layers.4.bn2.bias    |       [328]       |  328   |
|  layers.4.prelu2.weight |       [328]       |  328   |
|  layers.4.conv3.weight  |  [104, 328, 1, 1] | 34112  |
|   layers.4.bn3.weight   |       [104]       |  104   |
|    layers.4.bn3.bias    |       [104]       |  104   |
|  layers.5.conv1.weight  |  [656, 104, 1, 1] | 68224  |
|   layers.5.bn1.weight   |       [656]       |  656   |
|    layers.5.bn1.bias    |       [656]       |  656   |
|  layers.5.prelu1.weight |       [656]       |  656   |
|  layers.5.conv2.weight  |   [656, 1, 3, 3]  |  5904  |
|   layers.5.bn2.weight   |       [656]       |  656   |
|    layers.5.bn2.bias    |       [656]       |  656   |
|  layers.5.prelu2.weight |       [656]       |  656   |
|  layers.5.conv3.weight  |  [200, 656, 1, 1] | 131200 |
|   layers.5.bn3.weight   |       [200]       |  200   |
|    layers.5.bn3.bias    |       [200]       |  200   |
|  layers.6.conv1.weight  |  [624, 200, 1, 1] | 124800 |
|   layers.6.bn1.weight   |       [624]       |  624   |
|    layers.6.bn1.bias    |       [624]       |  624   |
|  layers.6.prelu1.weight |       [624]       |  624   |
|  layers.6.conv2.weight  |   [624, 1, 3, 3]  |  5616  |
|   layers.6.bn2.weight   |       [624]       |  624   |
|    layers.6.bn2.bias    |       [624]       |  624   |
|  layers.6.prelu2.weight |       [624]       |  624   |
|  layers.6.conv3.weight  |  [200, 624, 1, 1] | 124800 |
|   layers.6.bn3.weight   |       [200]       |  200   |
|    layers.6.bn3.bias    |       [200]       |  200   |
|  layers.7.conv1.weight  |  [624, 200, 1, 1] | 124800 |
|   layers.7.bn1.weight   |       [624]       |  624   |
|    layers.7.bn1.bias    |       [624]       |  624   |
|  layers.7.prelu1.weight |       [624]       |  624   |
|  layers.7.conv2.weight  |   [624, 1, 3, 3]  |  5616  |
|   layers.7.bn2.weight   |       [624]       |  624   |
|    layers.7.bn2.bias    |       [624]       |  624   |
|  layers.7.prelu2.weight |       [624]       |  624   |
|  layers.7.conv3.weight  |  [200, 624, 1, 1] | 124800 |
|   layers.7.bn3.weight   |       [200]       |  200   |
|    layers.7.bn3.bias    |       [200]       |  200   |
|  layers.8.conv1.weight  |  [624, 200, 1, 1] | 124800 |
|   layers.8.bn1.weight   |       [624]       |  624   |
|    layers.8.bn1.bias    |       [624]       |  624   |
|  layers.8.prelu1.weight |       [624]       |  624   |
|  layers.8.conv2.weight  |   [624, 1, 3, 3]  |  5616  |
|   layers.8.bn2.weight   |       [624]       |  624   |
|    layers.8.bn2.bias    |       [624]       |  624   |
|  layers.8.prelu2.weight |       [624]       |  624   |
|  layers.8.conv3.weight  |  [200, 624, 1, 1] | 124800 |
|   layers.8.bn3.weight   |       [200]       |  200   |
|    layers.8.bn3.bias    |       [200]       |  200   |
|  layers.9.conv1.weight  |  [624, 200, 1, 1] | 124800 |
|   layers.9.bn1.weight   |       [624]       |  624   |
|    layers.9.bn1.bias    |       [624]       |  624   |
|  layers.9.prelu1.weight |       [624]       |  624   |
|  layers.9.conv2.weight  |   [624, 1, 3, 3]  |  5616  |
|   layers.9.bn2.weight   |       [624]       |  624   |
|    layers.9.bn2.bias    |       [624]       |  624   |
|  layers.9.prelu2.weight |       [624]       |  624   |
|  layers.9.conv3.weight  |  [200, 624, 1, 1] | 124800 |
|   layers.9.bn3.weight   |       [200]       |  200   |
|    layers.9.bn3.bias    |       [200]       |  200   |
|  layers.10.conv1.weight |  [624, 200, 1, 1] | 124800 |
|   layers.10.bn1.weight  |       [624]       |  624   |
|    layers.10.bn1.bias   |       [624]       |  624   |
| layers.10.prelu1.weight |       [624]       |  624   |
|  layers.10.conv2.weight |   [624, 1, 3, 3]  |  5616  |
|   layers.10.bn2.weight  |       [624]       |  624   |
|    layers.10.bn2.bias   |       [624]       |  624   |
| layers.10.prelu2.weight |       [624]       |  624   |
|  layers.10.conv3.weight |  [200, 624, 1, 1] | 124800 |
|   layers.10.bn3.weight  |       [200]       |  200   |
|    layers.10.bn3.bias   |       [200]       |  200   |
|  layers.11.conv1.weight |  [624, 200, 1, 1] | 124800 |
|   layers.11.bn1.weight  |       [624]       |  624   |
|    layers.11.bn1.bias   |       [624]       |  624   |
| layers.11.prelu1.weight |       [624]       |  624   |
|  layers.11.conv2.weight |   [624, 1, 3, 3]  |  5616  |
|   layers.11.bn2.weight  |       [624]       |  624   |
|    layers.11.bn2.bias   |       [624]       |  624   |
| layers.11.prelu2.weight |       [624]       |  624   |
|  layers.11.conv3.weight |  [200, 624, 1, 1] | 124800 |
|   layers.11.bn3.weight  |       [200]       |  200   |
|    layers.11.bn3.bias   |       [200]       |  200   |
|  layers.12.conv1.weight | [1248, 200, 1, 1] | 249600 |
|   layers.12.bn1.weight  |       [1248]      |  1248  |
|    layers.12.bn1.bias   |       [1248]      |  1248  |
| layers.12.prelu1.weight |       [1248]      |  1248  |
|  layers.12.conv2.weight |  [1248, 1, 3, 3]  | 11232  |
|   layers.12.bn2.weight  |       [1248]      |  1248  |
|    layers.12.bn2.bias   |       [1248]      |  1248  |
| layers.12.prelu2.weight |       [1248]      |  1248  |
|  layers.12.conv3.weight | [200, 1248, 1, 1] | 249600 |
|   layers.12.bn3.weight  |       [200]       |  200   |
|    layers.12.bn3.bias   |       [200]       |  200   |
|  layers.13.conv1.weight |  [624, 200, 1, 1] | 124800 |
|   layers.13.bn1.weight  |       [624]       |  624   |
|    layers.13.bn1.bias   |       [624]       |  624   |
| layers.13.prelu1.weight |       [624]       |  624   |
|  layers.13.conv2.weight |   [624, 1, 3, 3]  |  5616  |
|   layers.13.bn2.weight  |       [624]       |  624   |
|    layers.13.bn2.bias   |       [624]       |  624   |
| layers.13.prelu2.weight |       [624]       |  624   |
|  layers.13.conv3.weight |  [200, 624, 1, 1] | 124800 |
|   layers.13.bn3.weight  |       [200]       |  200   |
|    layers.13.bn3.bias   |       [200]       |  200   |
|  layers.14.conv1.weight |  [624, 200, 1, 1] | 124800 |
|   layers.14.bn1.weight  |       [624]       |  624   |
|    layers.14.bn1.bias   |       [624]       |  624   |
| layers.14.prelu1.weight |       [624]       |  624   |
|  layers.14.conv2.weight |   [624, 1, 3, 3]  |  5616  |
|   layers.14.bn2.weight  |       [624]       |  624   |
|    layers.14.bn2.bias   |       [624]       |  624   |
| layers.14.prelu2.weight |       [624]       |  624   |
|  layers.14.conv3.weight |  [200, 624, 1, 1] | 124800 |
|   layers.14.bn3.weight  |       [200]       |  200   |
|    layers.14.bn3.bias   |       [200]       |  200   |
|       conv3.weight      |  [512, 200, 1, 1] | 102400 |
|        bn3.weight       |       [512]       |  512   |
|         bn3.bias        |       [512]       |  512   |
|      prelu3.weight      |       [512]       |  512   |
|       conv4.weight      |   [512, 1, 7, 7]  | 25088  |
|        bn4.weight       |       [512]       |  512   |
|         bn4.bias        |       [512]       |  512   |
|      linear.weight      |     [512, 512]    | 262144 |
|       linear.bias       |       [512]       |  512   |
+-------------------------+-------------------+--------+
2019-06-21 18:08:18,919 INFO: |===>Number of parameters is: 3528472
2019-06-21 18:08:19,377 INFO: ------------------------FLOPs------------------------

2019-06-21 18:08:19,377 INFO: +-----------------+-------------------+-----------+------------+-------------------+-----------+------------------------+
|      Layer      |    Weight Shape   | #Channels | Bias Shape |    Output Shape   |   FLOPs   |       Percentage       |
+-----------------+-------------------+-----------+------------+-------------------+-----------+------------------------+
|      conv1      |   [64, 3, 3, 3]   |     3     |    [0]     |  [1, 64, 56, 56]  |  10637312 |  0.007009972434199041  |
|      conv2      |   [64, 1, 3, 3]   |     64    |    [0]     |  [1, 64, 56, 56]  |  3609536  |  0.002378678735779215  |
|  layers.0.conv1 |  [200, 64, 1, 1]  |     64    |    [0]     |  [1, 200, 56, 56] |  79654400 |  0.052492128487221595  |
|  layers.0.conv2 |   [200, 1, 3, 3]  |    200    |    [0]     |  [1, 200, 28, 28] |  2821616  | 0.0018594406537943949  |
|  layers.0.conv3 |  [104, 200, 1, 1] |    200    |    [0]     |  [1, 104, 28, 28] |  32532864 |  0.021439107910489637  |
|  layers.1.conv1 |  [328, 104, 1, 1] |    104    |    [0]     |  [1, 328, 28, 28] |  53230464 |  0.03507879484024013   |
|  layers.1.conv2 |   [328, 1, 3, 3]  |    328    |    [0]     |  [1, 328, 28, 28] |  4627952  | 0.0030498133312998926  |
|  layers.1.conv3 |  [104, 328, 1, 1] |    328    |    [0]     |  [1, 104, 28, 28] |  53406080 |  0.035194525517219834  |
|  layers.2.conv1 |  [328, 104, 1, 1] |    104    |    [0]     |  [1, 328, 28, 28] |  53230464 |  0.03507879484024013   |
|  layers.2.conv2 |   [328, 1, 3, 3]  |    328    |    [0]     |  [1, 328, 28, 28] |  4627952  | 0.0030498133312998926  |
|  layers.2.conv3 |  [104, 328, 1, 1] |    328    |    [0]     |  [1, 104, 28, 28] |  53406080 |  0.035194525517219834  |
|  layers.3.conv1 |  [328, 104, 1, 1] |    104    |    [0]     |  [1, 328, 28, 28] |  53230464 |  0.03507879484024013   |
|  layers.3.conv2 |   [328, 1, 3, 3]  |    328    |    [0]     |  [1, 328, 28, 28] |  4627952  | 0.0030498133312998926  |
|  layers.3.conv3 |  [104, 328, 1, 1] |    328    |    [0]     |  [1, 104, 28, 28] |  53406080 |  0.035194525517219834  |
|  layers.4.conv1 |  [328, 104, 1, 1] |    104    |    [0]     |  [1, 328, 28, 28] |  53230464 |  0.03507879484024013   |
|  layers.4.conv2 |   [328, 1, 3, 3]  |    328    |    [0]     |  [1, 328, 28, 28] |  4627952  | 0.0030498133312998926  |
|  layers.4.conv3 |  [104, 328, 1, 1] |    328    |    [0]     |  [1, 104, 28, 28] |  53406080 |  0.035194525517219834  |
|  layers.5.conv1 |  [656, 104, 1, 1] |    104    |    [0]     |  [1, 656, 28, 28] | 106460928 |  0.07015758968048026   |
|  layers.5.conv2 |   [656, 1, 3, 3]  |    656    |    [0]     |  [1, 656, 14, 14] |  2314172  | 0.0015250358293519325  |
|  layers.5.conv3 |  [200, 656, 1, 1] |    656    |    [0]     |  [1, 200, 14, 14] |  51391200 |  0.033866722660800944  |
|  layers.6.conv1 |  [624, 200, 1, 1] |    200    |    [0]     |  [1, 624, 14, 14] |  48799296 |  0.03215866186573446   |
|  layers.6.conv2 |   [624, 1, 3, 3]  |    624    |    [0]     |  [1, 624, 14, 14] |  2201276  | 0.0014506375370078389  |
|  layers.6.conv3 |  [200, 624, 1, 1] |    624    |    [0]     |  [1, 200, 14, 14] |  48882400 |  0.03221342727537664   |
|  layers.7.conv1 |  [624, 200, 1, 1] |    200    |    [0]     |  [1, 624, 14, 14] |  48799296 |  0.03215866186573446   |
|  layers.7.conv2 |   [624, 1, 3, 3]  |    624    |    [0]     |  [1, 624, 14, 14] |  2201276  | 0.0014506375370078389  |
|  layers.7.conv3 |  [200, 624, 1, 1] |    624    |    [0]     |  [1, 200, 14, 14] |  48882400 |  0.03221342727537664   |
|  layers.8.conv1 |  [624, 200, 1, 1] |    200    |    [0]     |  [1, 624, 14, 14] |  48799296 |  0.03215866186573446   |
|  layers.8.conv2 |   [624, 1, 3, 3]  |    624    |    [0]     |  [1, 624, 14, 14] |  2201276  | 0.0014506375370078389  |
|  layers.8.conv3 |  [200, 624, 1, 1] |    624    |    [0]     |  [1, 200, 14, 14] |  48882400 |  0.03221342727537664   |
|  layers.9.conv1 |  [624, 200, 1, 1] |    200    |    [0]     |  [1, 624, 14, 14] |  48799296 |  0.03215866186573446   |
|  layers.9.conv2 |   [624, 1, 3, 3]  |    624    |    [0]     |  [1, 624, 14, 14] |  2201276  | 0.0014506375370078389  |
|  layers.9.conv3 |  [200, 624, 1, 1] |    624    |    [0]     |  [1, 200, 14, 14] |  48882400 |  0.03221342727537664   |
| layers.10.conv1 |  [624, 200, 1, 1] |    200    |    [0]     |  [1, 624, 14, 14] |  48799296 |  0.03215866186573446   |
| layers.10.conv2 |   [624, 1, 3, 3]  |    624    |    [0]     |  [1, 624, 14, 14] |  2201276  | 0.0014506375370078389  |
| layers.10.conv3 |  [200, 624, 1, 1] |    624    |    [0]     |  [1, 200, 14, 14] |  48882400 |  0.03221342727537664   |
| layers.11.conv1 |  [624, 200, 1, 1] |    200    |    [0]     |  [1, 624, 14, 14] |  48799296 |  0.03215866186573446   |
| layers.11.conv2 |   [624, 1, 3, 3]  |    624    |    [0]     |  [1, 624, 14, 14] |  2201276  | 0.0014506375370078389  |
| layers.11.conv3 |  [200, 624, 1, 1] |    624    |    [0]     |  [1, 200, 14, 14] |  48882400 |  0.03221342727537664   |
| layers.12.conv1 | [1248, 200, 1, 1] |    200    |    [0]     | [1, 1248, 14, 14] |  97598592 |  0.06431732373146892   |
| layers.12.conv2 |  [1248, 1, 3, 3]  |    1248   |    [0]     |  [1, 1248, 7, 7]  |  1100687  |  0.000725351059429416  |
| layers.12.conv3 | [200, 1248, 1, 1] |    1248   |    [0]     |   [1, 200, 7, 7]  |  24451000 |  0.016113171822787632  |
| layers.13.conv1 |  [624, 200, 1, 1] |    200    |    [0]     |   [1, 624, 7, 7]  |  12199824 |  0.008039665466433615  |
| layers.13.conv2 |   [624, 1, 3, 3]  |    624    |    [0]     |   [1, 624, 7, 7]  |   550319  | 0.0003626593842519597  |
| layers.13.conv3 |  [200, 624, 1, 1] |    624    |    [0]     |   [1, 200, 7, 7]  |  12220600 |  0.00805335681884416   |
| layers.14.conv1 |  [624, 200, 1, 1] |    200    |    [0]     |   [1, 624, 7, 7]  |  12199824 |  0.008039665466433615  |
| layers.14.conv2 |   [624, 1, 3, 3]  |    624    |    [0]     |   [1, 624, 7, 7]  |   550319  | 0.0003626593842519597  |
| layers.14.conv3 |  [200, 624, 1, 1] |    624    |    [0]     |   [1, 200, 7, 7]  |  12220600 |  0.00805335681884416   |
|      conv3      |  [512, 200, 1, 1] |    200    |    [0]     |   [1, 512, 7, 7]  |  10010112 |  0.006596648587842966  |
|      conv4      |   [512, 1, 7, 7]  |    512    |    [0]     |   [1, 512, 1, 1]  |   50175   | 3.3065248710006524e-05 |
|      linear     |     [512, 512]    |    512    |   [512]    |      [1, 512]     |   524288  | 0.00034550499483152765 |
+-----------------+-------------------+-----------+------------+-------------------+-----------+------------------------+
2019-06-21 18:08:19,392 INFO: |===>Total FLOPs: 1.517454e+09
2019-06-21 18:08:27,455 INFO: ------------------------number of parameters------------------------

2019-06-21 18:08:27,456 INFO: +-------------------------+-------------------+--------+
|        Param name       |       Shape       |  Dim   |
+-------------------------+-------------------+--------+
|       conv1.weight      |   [64, 3, 3, 3]   |  1728  |
|        bn1.weight       |        [64]       |   64   |
|         bn1.bias        |        [64]       |   64   |
|      prelu1.weight      |        [64]       |   64   |
|       conv2.weight      |   [64, 1, 3, 3]   |  576   |
|        bn2.weight       |        [64]       |   64   |
|         bn2.bias        |        [64]       |   64   |
|      prelu2.weight      |        [64]       |   64   |
|  layers.0.conv1.weight  |  [192, 64, 1, 1]  | 12288  |
|   layers.0.bn1.weight   |       [192]       |  192   |
|    layers.0.bn1.bias    |       [192]       |  192   |
|  layers.0.prelu1.weight |       [192]       |  192   |
|  layers.0.conv2.weight  |   [192, 1, 3, 3]  |  1728  |
|   layers.0.bn2.weight   |       [192]       |  192   |
|    layers.0.bn2.bias    |       [192]       |  192   |
|  layers.0.prelu2.weight |       [192]       |  192   |
|  layers.0.conv3.weight  |  [96, 192, 1, 1]  | 18432  |
|   layers.0.bn3.weight   |        [96]       |   96   |
|    layers.0.bn3.bias    |        [96]       |   96   |
|  layers.1.conv1.weight  |  [288, 96, 1, 1]  | 27648  |
|   layers.1.bn1.weight   |       [288]       |  288   |
|    layers.1.bn1.bias    |       [288]       |  288   |
|  layers.1.prelu1.weight |       [288]       |  288   |
|  layers.1.conv2.weight  |   [288, 1, 3, 3]  |  2592  |
|   layers.1.bn2.weight   |       [288]       |  288   |
|    layers.1.bn2.bias    |       [288]       |  288   |
|  layers.1.prelu2.weight |       [288]       |  288   |
|  layers.1.conv3.weight  |  [96, 288, 1, 1]  | 27648  |
|   layers.1.bn3.weight   |        [96]       |   96   |
|    layers.1.bn3.bias    |        [96]       |   96   |
|  layers.2.conv1.weight  |  [288, 96, 1, 1]  | 27648  |
|   layers.2.bn1.weight   |       [288]       |  288   |
|    layers.2.bn1.bias    |       [288]       |  288   |
|  layers.2.prelu1.weight |       [288]       |  288   |
|  layers.2.conv2.weight  |   [288, 1, 3, 3]  |  2592  |
|   layers.2.bn2.weight   |       [288]       |  288   |
|    layers.2.bn2.bias    |       [288]       |  288   |
|  layers.2.prelu2.weight |       [288]       |  288   |
|  layers.2.conv3.weight  |  [96, 288, 1, 1]  | 27648  |
|   layers.2.bn3.weight   |        [96]       |   96   |
|    layers.2.bn3.bias    |        [96]       |   96   |
|  layers.3.conv1.weight  |  [288, 96, 1, 1]  | 27648  |
|   layers.3.bn1.weight   |       [288]       |  288   |
|    layers.3.bn1.bias    |       [288]       |  288   |
|  layers.3.prelu1.weight |       [288]       |  288   |
|  layers.3.conv2.weight  |   [288, 1, 3, 3]  |  2592  |
|   layers.3.bn2.weight   |       [288]       |  288   |
|    layers.3.bn2.bias    |       [288]       |  288   |
|  layers.3.prelu2.weight |       [288]       |  288   |
|  layers.3.conv3.weight  |  [96, 288, 1, 1]  | 27648  |
|   layers.3.bn3.weight   |        [96]       |   96   |
|    layers.3.bn3.bias    |        [96]       |   96   |
|  layers.4.conv1.weight  |  [288, 96, 1, 1]  | 27648  |
|   layers.4.bn1.weight   |       [288]       |  288   |
|    layers.4.bn1.bias    |       [288]       |  288   |
|  layers.4.prelu1.weight |       [288]       |  288   |
|  layers.4.conv2.weight  |   [288, 1, 3, 3]  |  2592  |
|   layers.4.bn2.weight   |       [288]       |  288   |
|    layers.4.bn2.bias    |       [288]       |  288   |
|  layers.4.prelu2.weight |       [288]       |  288   |
|  layers.4.conv3.weight  |  [96, 288, 1, 1]  | 27648  |
|   layers.4.bn3.weight   |        [96]       |   96   |
|    layers.4.bn3.bias    |        [96]       |   96   |
|  layers.5.conv1.weight  |  [576, 96, 1, 1]  | 55296  |
|   layers.5.bn1.weight   |       [576]       |  576   |
|    layers.5.bn1.bias    |       [576]       |  576   |
|  layers.5.prelu1.weight |       [576]       |  576   |
|  layers.5.conv2.weight  |   [576, 1, 3, 3]  |  5184  |
|   layers.5.bn2.weight   |       [576]       |  576   |
|    layers.5.bn2.bias    |       [576]       |  576   |
|  layers.5.prelu2.weight |       [576]       |  576   |
|  layers.5.conv3.weight  |  [192, 576, 1, 1] | 110592 |
|   layers.5.bn3.weight   |       [192]       |  192   |
|    layers.5.bn3.bias    |       [192]       |  192   |
|  layers.6.conv1.weight  |  [576, 192, 1, 1] | 110592 |
|   layers.6.bn1.weight   |       [576]       |  576   |
|    layers.6.bn1.bias    |       [576]       |  576   |
|  layers.6.prelu1.weight |       [576]       |  576   |
|  layers.6.conv2.weight  |   [576, 1, 3, 3]  |  5184  |
|   layers.6.bn2.weight   |       [576]       |  576   |
|    layers.6.bn2.bias    |       [576]       |  576   |
|  layers.6.prelu2.weight |       [576]       |  576   |
|  layers.6.conv3.weight  |  [192, 576, 1, 1] | 110592 |
|   layers.6.bn3.weight   |       [192]       |  192   |
|    layers.6.bn3.bias    |       [192]       |  192   |
|  layers.7.conv1.weight  |  [576, 192, 1, 1] | 110592 |
|   layers.7.bn1.weight   |       [576]       |  576   |
|    layers.7.bn1.bias    |       [576]       |  576   |
|  layers.7.prelu1.weight |       [576]       |  576   |
|  layers.7.conv2.weight  |   [576, 1, 3, 3]  |  5184  |
|   layers.7.bn2.weight   |       [576]       |  576   |
|    layers.7.bn2.bias    |       [576]       |  576   |
|  layers.7.prelu2.weight |       [576]       |  576   |
|  layers.7.conv3.weight  |  [192, 576, 1, 1] | 110592 |
|   layers.7.bn3.weight   |       [192]       |  192   |
|    layers.7.bn3.bias    |       [192]       |  192   |
|  layers.8.conv1.weight  |  [576, 192, 1, 1] | 110592 |
|   layers.8.bn1.weight   |       [576]       |  576   |
|    layers.8.bn1.bias    |       [576]       |  576   |
|  layers.8.prelu1.weight |       [576]       |  576   |
|  layers.8.conv2.weight  |   [576, 1, 3, 3]  |  5184  |
|   layers.8.bn2.weight   |       [576]       |  576   |
|    layers.8.bn2.bias    |       [576]       |  576   |
|  layers.8.prelu2.weight |       [576]       |  576   |
|  layers.8.conv3.weight  |  [192, 576, 1, 1] | 110592 |
|   layers.8.bn3.weight   |       [192]       |  192   |
|    layers.8.bn3.bias    |       [192]       |  192   |
|  layers.9.conv1.weight  |  [576, 192, 1, 1] | 110592 |
|   layers.9.bn1.weight   |       [576]       |  576   |
|    layers.9.bn1.bias    |       [576]       |  576   |
|  layers.9.prelu1.weight |       [576]       |  576   |
|  layers.9.conv2.weight  |   [576, 1, 3, 3]  |  5184  |
|   layers.9.bn2.weight   |       [576]       |  576   |
|    layers.9.bn2.bias    |       [576]       |  576   |
|  layers.9.prelu2.weight |       [576]       |  576   |
|  layers.9.conv3.weight  |  [192, 576, 1, 1] | 110592 |
|   layers.9.bn3.weight   |       [192]       |  192   |
|    layers.9.bn3.bias    |       [192]       |  192   |
|  layers.10.conv1.weight |  [576, 192, 1, 1] | 110592 |
|   layers.10.bn1.weight  |       [576]       |  576   |
|    layers.10.bn1.bias   |       [576]       |  576   |
| layers.10.prelu1.weight |       [576]       |  576   |
|  layers.10.conv2.weight |   [576, 1, 3, 3]  |  5184  |
|   layers.10.bn2.weight  |       [576]       |  576   |
|    layers.10.bn2.bias   |       [576]       |  576   |
| layers.10.prelu2.weight |       [576]       |  576   |
|  layers.10.conv3.weight |  [192, 576, 1, 1] | 110592 |
|   layers.10.bn3.weight  |       [192]       |  192   |
|    layers.10.bn3.bias   |       [192]       |  192   |
|  layers.11.conv1.weight |  [576, 192, 1, 1] | 110592 |
|   layers.11.bn1.weight  |       [576]       |  576   |
|    layers.11.bn1.bias   |       [576]       |  576   |
| layers.11.prelu1.weight |       [576]       |  576   |
|  layers.11.conv2.weight |   [576, 1, 3, 3]  |  5184  |
|   layers.11.bn2.weight  |       [576]       |  576   |
|    layers.11.bn2.bias   |       [576]       |  576   |
| layers.11.prelu2.weight |       [576]       |  576   |
|  layers.11.conv3.weight |  [192, 576, 1, 1] | 110592 |
|   layers.11.bn3.weight  |       [192]       |  192   |
|    layers.11.bn3.bias   |       [192]       |  192   |
|  layers.12.conv1.weight | [1152, 192, 1, 1] | 221184 |
|   layers.12.bn1.weight  |       [1152]      |  1152  |
|    layers.12.bn1.bias   |       [1152]      |  1152  |
| layers.12.prelu1.weight |       [1152]      |  1152  |
|  layers.12.conv2.weight |  [1152, 1, 3, 3]  | 10368  |
|   layers.12.bn2.weight  |       [1152]      |  1152  |
|    layers.12.bn2.bias   |       [1152]      |  1152  |
| layers.12.prelu2.weight |       [1152]      |  1152  |
|  layers.12.conv3.weight | [192, 1152, 1, 1] | 221184 |
|   layers.12.bn3.weight  |       [192]       |  192   |
|    layers.12.bn3.bias   |       [192]       |  192   |
|  layers.13.conv1.weight |  [576, 192, 1, 1] | 110592 |
|   layers.13.bn1.weight  |       [576]       |  576   |
|    layers.13.bn1.bias   |       [576]       |  576   |
| layers.13.prelu1.weight |       [576]       |  576   |
|  layers.13.conv2.weight |   [576, 1, 3, 3]  |  5184  |
|   layers.13.bn2.weight  |       [576]       |  576   |
|    layers.13.bn2.bias   |       [576]       |  576   |
| layers.13.prelu2.weight |       [576]       |  576   |
|  layers.13.conv3.weight |  [192, 576, 1, 1] | 110592 |
|   layers.13.bn3.weight  |       [192]       |  192   |
|    layers.13.bn3.bias   |       [192]       |  192   |
|  layers.14.conv1.weight |  [576, 192, 1, 1] | 110592 |
|   layers.14.bn1.weight  |       [576]       |  576   |
|    layers.14.bn1.bias   |       [576]       |  576   |
| layers.14.prelu1.weight |       [576]       |  576   |
|  layers.14.conv2.weight |   [576, 1, 3, 3]  |  5184  |
|   layers.14.bn2.weight  |       [576]       |  576   |
|    layers.14.bn2.bias   |       [576]       |  576   |
| layers.14.prelu2.weight |       [576]       |  576   |
|  layers.14.conv3.weight |  [192, 576, 1, 1] | 110592 |
|   layers.14.bn3.weight  |       [192]       |  192   |
|    layers.14.bn3.bias   |       [192]       |  192   |
|       conv3.weight      |  [512, 192, 1, 1] | 98304  |
|        bn3.weight       |       [512]       |  512   |
|         bn3.bias        |       [512]       |  512   |
|      prelu3.weight      |       [512]       |  512   |
|       conv4.weight      |   [512, 1, 7, 7]  | 25088  |
|        bn4.weight       |       [512]       |  512   |
|         bn4.bias        |       [512]       |  512   |
|      linear.weight      |     [512, 512]    | 262144 |
|       linear.bias       |       [512]       |  512   |
+-------------------------+-------------------+--------+
2019-06-21 18:08:27,482 INFO: |===>Number of parameters is: 3140928
2019-06-21 18:08:27,919 INFO: ------------------------FLOPs------------------------

2019-06-21 18:08:27,919 INFO: +-----------------+-------------------+-----------+------------+-------------------+----------+------------------------+
|      Layer      |    Weight Shape   | #Channels | Bias Shape |    Output Shape   |  FLOPs   |       Percentage       |
+-----------------+-------------------+-----------+------------+-------------------+----------+------------------------+
|      conv1      |   [64, 3, 3, 3]   |     3     |    [0]     |  [1, 64, 56, 56]  | 10637312 |  0.00811472675363523   |
|      conv2      |   [64, 1, 3, 3]   |     64    |    [0]     |  [1, 64, 56, 56]  | 3609536  | 0.0027535526218850676  |
|  layers.0.conv1 |  [192, 64, 1, 1]  |     64    |    [0]     |  [1, 192, 56, 56] | 76468224 |  0.058334167795000426  |
|  layers.0.conv2 |   [192, 1, 3, 3]  |    192    |    [0]     |  [1, 192, 28, 28] | 2708720  | 0.0020663606230697023  |
|  layers.0.conv3 |  [96, 192, 1, 1]  |    192    |    [0]     |  [1, 96, 28, 28]  | 28826112 |  0.021990143962091695  |
|  layers.1.conv1 |  [288, 96, 1, 1]  |     96    |    [0]     |  [1, 288, 28, 28] | 43126272 |  0.032899092663912645  |
|  layers.1.conv2 |   [288, 1, 3, 3]  |    288    |    [0]     |  [1, 288, 28, 28] | 4063472  | 0.0030998399737685286  |
|  layers.1.conv3 |  [96, 288, 1, 1]  |    288    |    [0]     |  [1, 96, 28, 28]  | 43276800 |  0.03301392370287918   |
|  layers.2.conv1 |  [288, 96, 1, 1]  |     96    |    [0]     |  [1, 288, 28, 28] | 43126272 |  0.032899092663912645  |
|  layers.2.conv2 |   [288, 1, 3, 3]  |    288    |    [0]     |  [1, 288, 28, 28] | 4063472  | 0.0030998399737685286  |
|  layers.2.conv3 |  [96, 288, 1, 1]  |    288    |    [0]     |  [1, 96, 28, 28]  | 43276800 |  0.03301392370287918   |
|  layers.3.conv1 |  [288, 96, 1, 1]  |     96    |    [0]     |  [1, 288, 28, 28] | 43126272 |  0.032899092663912645  |
|  layers.3.conv2 |   [288, 1, 3, 3]  |    288    |    [0]     |  [1, 288, 28, 28] | 4063472  | 0.0030998399737685286  |
|  layers.3.conv3 |  [96, 288, 1, 1]  |    288    |    [0]     |  [1, 96, 28, 28]  | 43276800 |  0.03301392370287918   |
|  layers.4.conv1 |  [288, 96, 1, 1]  |     96    |    [0]     |  [1, 288, 28, 28] | 43126272 |  0.032899092663912645  |
|  layers.4.conv2 |   [288, 1, 3, 3]  |    288    |    [0]     |  [1, 288, 28, 28] | 4063472  | 0.0030998399737685286  |
|  layers.4.conv3 |  [96, 288, 1, 1]  |    288    |    [0]     |  [1, 96, 28, 28]  | 43276800 |  0.03301392370287918   |
|  layers.5.conv1 |  [576, 96, 1, 1]  |     96    |    [0]     |  [1, 576, 28, 28] | 86252544 |  0.06579818532782529   |
|  layers.5.conv2 |   [576, 1, 3, 3]  |    576    |    [0]     |  [1, 576, 14, 14] | 2031932  |  0.001550069506466252  |
|  layers.5.conv3 |  [192, 576, 1, 1] |    576    |    [0]     |  [1, 192, 14, 14] | 43314432 |  0.03304263146262081   |
|  layers.6.conv1 |  [576, 192, 1, 1] |    192    |    [0]     |  [1, 576, 14, 14] | 43239168 |  0.032985215943137546  |
|  layers.6.conv2 |   [576, 1, 3, 3]  |    576    |    [0]     |  [1, 576, 14, 14] | 2031932  |  0.001550069506466252  |
|  layers.6.conv3 |  [192, 576, 1, 1] |    576    |    [0]     |  [1, 192, 14, 14] | 43314432 |  0.03304263146262081   |
|  layers.7.conv1 |  [576, 192, 1, 1] |    192    |    [0]     |  [1, 576, 14, 14] | 43239168 |  0.032985215943137546  |
|  layers.7.conv2 |   [576, 1, 3, 3]  |    576    |    [0]     |  [1, 576, 14, 14] | 2031932  |  0.001550069506466252  |
|  layers.7.conv3 |  [192, 576, 1, 1] |    576    |    [0]     |  [1, 192, 14, 14] | 43314432 |  0.03304263146262081   |
|  layers.8.conv1 |  [576, 192, 1, 1] |    192    |    [0]     |  [1, 576, 14, 14] | 43239168 |  0.032985215943137546  |
|  layers.8.conv2 |   [576, 1, 3, 3]  |    576    |    [0]     |  [1, 576, 14, 14] | 2031932  |  0.001550069506466252  |
|  layers.8.conv3 |  [192, 576, 1, 1] |    576    |    [0]     |  [1, 192, 14, 14] | 43314432 |  0.03304263146262081   |
|  layers.9.conv1 |  [576, 192, 1, 1] |    192    |    [0]     |  [1, 576, 14, 14] | 43239168 |  0.032985215943137546  |
|  layers.9.conv2 |   [576, 1, 3, 3]  |    576    |    [0]     |  [1, 576, 14, 14] | 2031932  |  0.001550069506466252  |
|  layers.9.conv3 |  [192, 576, 1, 1] |    576    |    [0]     |  [1, 192, 14, 14] | 43314432 |  0.03304263146262081   |
| layers.10.conv1 |  [576, 192, 1, 1] |    192    |    [0]     |  [1, 576, 14, 14] | 43239168 |  0.032985215943137546  |
| layers.10.conv2 |   [576, 1, 3, 3]  |    576    |    [0]     |  [1, 576, 14, 14] | 2031932  |  0.001550069506466252  |
| layers.10.conv3 |  [192, 576, 1, 1] |    576    |    [0]     |  [1, 192, 14, 14] | 43314432 |  0.03304263146262081   |
| layers.11.conv1 |  [576, 192, 1, 1] |    192    |    [0]     |  [1, 576, 14, 14] | 43239168 |  0.032985215943137546  |
| layers.11.conv2 |   [576, 1, 3, 3]  |    576    |    [0]     |  [1, 576, 14, 14] | 2031932  |  0.001550069506466252  |
| layers.11.conv3 |  [192, 576, 1, 1] |    576    |    [0]     |  [1, 192, 14, 14] | 43314432 |  0.03304263146262081   |
| layers.12.conv1 | [1152, 192, 1, 1] |    192    |    [0]     | [1, 1152, 14, 14] | 86478336 |  0.06597043188627509   |
| layers.12.conv2 |  [1152, 1, 3, 3]  |    1152   |    [0]     |  [1, 1152, 7, 7]  | 1016015  |  0.000775072133128623  |
| layers.12.conv3 | [192, 1152, 1, 1] |    1152   |    [0]     |   [1, 192, 7, 7]  | 21666624 |  0.016528492671245815  |
| layers.13.conv1 |  [576, 192, 1, 1] |    192    |    [0]     |   [1, 576, 7, 7]  | 10809792 |  0.008246303985784386  |
| layers.13.conv2 |   [576, 1, 3, 3]  |    576    |    [0]     |   [1, 576, 7, 7]  |  507983  |  0.000387517376616563  |
| layers.13.conv3 |  [192, 576, 1, 1] |    576    |    [0]     |   [1, 192, 7, 7]  | 10828608 |  0.008260657865655203  |
| layers.14.conv1 |  [576, 192, 1, 1] |    192    |    [0]     |   [1, 576, 7, 7]  | 10809792 |  0.008246303985784386  |
| layers.14.conv2 |   [576, 1, 3, 3]  |    576    |    [0]     |   [1, 576, 7, 7]  |  507983  |  0.000387517376616563  |
| layers.14.conv3 |  [192, 576, 1, 1] |    576    |    [0]     |   [1, 192, 7, 7]  | 10828608 |  0.008260657865655203  |
|      conv3      |  [512, 192, 1, 1] |    192    |    [0]     |   [1, 512, 7, 7]  | 9608704  |  0.007330047987363899  |
|      conv4      |   [512, 1, 7, 7]  |    512    |    [0]     |   [1, 512, 1, 1]  |  50175   | 3.8276250133835286e-05 |
|      linear     |     [512, 512]    |    512    |   [512]    |      [1, 512]     |  524288  | 0.00039995572755691545 |
+-----------------+-------------------+-----------+------------+-------------------+----------+------------------------+
2019-06-21 18:08:27,944 INFO: |===>Total FLOPs: 1.310865e+09
2019-06-21 18:08:33,926 INFO: ------------------------number of parameters------------------------

2019-06-21 18:08:33,927 INFO: +-------------------------+-------------------+--------+
|        Param name       |       Shape       |  Dim   |
+-------------------------+-------------------+--------+
|       conv1.weight      |   [64, 3, 3, 3]   |  1728  |
|        bn1.weight       |        [64]       |   64   |
|         bn1.bias        |        [64]       |   64   |
|      prelu1.weight      |        [64]       |   64   |
|       conv2.weight      |   [64, 1, 3, 3]   |  576   |
|        bn2.weight       |        [64]       |   64   |
|         bn2.bias        |        [64]       |   64   |
|      prelu2.weight      |        [64]       |   64   |
|  layers.0.conv1.weight  |  [184, 64, 1, 1]  | 11776  |
|   layers.0.bn1.weight   |       [184]       |  184   |
|    layers.0.bn1.bias    |       [184]       |  184   |
|  layers.0.prelu1.weight |       [184]       |  184   |
|  layers.0.conv2.weight  |   [184, 1, 3, 3]  |  1656  |
|   layers.0.bn2.weight   |       [184]       |  184   |
|    layers.0.bn2.bias    |       [184]       |  184   |
|  layers.0.prelu2.weight |       [184]       |  184   |
|  layers.0.conv3.weight  |  [96, 184, 1, 1]  | 17664  |
|   layers.0.bn3.weight   |        [96]       |   96   |
|    layers.0.bn3.bias    |        [96]       |   96   |
|  layers.1.conv1.weight  |  [272, 96, 1, 1]  | 26112  |
|   layers.1.bn1.weight   |       [272]       |  272   |
|    layers.1.bn1.bias    |       [272]       |  272   |
|  layers.1.prelu1.weight |       [272]       |  272   |
|  layers.1.conv2.weight  |   [272, 1, 3, 3]  |  2448  |
|   layers.1.bn2.weight   |       [272]       |  272   |
|    layers.1.bn2.bias    |       [272]       |  272   |
|  layers.1.prelu2.weight |       [272]       |  272   |
|  layers.1.conv3.weight  |  [96, 272, 1, 1]  | 26112  |
|   layers.1.bn3.weight   |        [96]       |   96   |
|    layers.1.bn3.bias    |        [96]       |   96   |
|  layers.2.conv1.weight  |  [272, 96, 1, 1]  | 26112  |
|   layers.2.bn1.weight   |       [272]       |  272   |
|    layers.2.bn1.bias    |       [272]       |  272   |
|  layers.2.prelu1.weight |       [272]       |  272   |
|  layers.2.conv2.weight  |   [272, 1, 3, 3]  |  2448  |
|   layers.2.bn2.weight   |       [272]       |  272   |
|    layers.2.bn2.bias    |       [272]       |  272   |
|  layers.2.prelu2.weight |       [272]       |  272   |
|  layers.2.conv3.weight  |  [96, 272, 1, 1]  | 26112  |
|   layers.2.bn3.weight   |        [96]       |   96   |
|    layers.2.bn3.bias    |        [96]       |   96   |
|  layers.3.conv1.weight  |  [272, 96, 1, 1]  | 26112  |
|   layers.3.bn1.weight   |       [272]       |  272   |
|    layers.3.bn1.bias    |       [272]       |  272   |
|  layers.3.prelu1.weight |       [272]       |  272   |
|  layers.3.conv2.weight  |   [272, 1, 3, 3]  |  2448  |
|   layers.3.bn2.weight   |       [272]       |  272   |
|    layers.3.bn2.bias    |       [272]       |  272   |
|  layers.3.prelu2.weight |       [272]       |  272   |
|  layers.3.conv3.weight  |  [96, 272, 1, 1]  | 26112  |
|   layers.3.bn3.weight   |        [96]       |   96   |
|    layers.3.bn3.bias    |        [96]       |   96   |
|  layers.4.conv1.weight  |  [272, 96, 1, 1]  | 26112  |
|   layers.4.bn1.weight   |       [272]       |  272   |
|    layers.4.bn1.bias    |       [272]       |  272   |
|  layers.4.prelu1.weight |       [272]       |  272   |
|  layers.4.conv2.weight  |   [272, 1, 3, 3]  |  2448  |
|   layers.4.bn2.weight   |       [272]       |  272   |
|    layers.4.bn2.bias    |       [272]       |  272   |
|  layers.4.prelu2.weight |       [272]       |  272   |
|  layers.4.conv3.weight  |  [96, 272, 1, 1]  | 26112  |
|   layers.4.bn3.weight   |        [96]       |   96   |
|    layers.4.bn3.bias    |        [96]       |   96   |
|  layers.5.conv1.weight  |  [544, 96, 1, 1]  | 52224  |
|   layers.5.bn1.weight   |       [544]       |  544   |
|    layers.5.bn1.bias    |       [544]       |  544   |
|  layers.5.prelu1.weight |       [544]       |  544   |
|  layers.5.conv2.weight  |   [544, 1, 3, 3]  |  4896  |
|   layers.5.bn2.weight   |       [544]       |  544   |
|    layers.5.bn2.bias    |       [544]       |  544   |
|  layers.5.prelu2.weight |       [544]       |  544   |
|  layers.5.conv3.weight  |  [184, 544, 1, 1] | 100096 |
|   layers.5.bn3.weight   |       [184]       |  184   |
|    layers.5.bn3.bias    |       [184]       |  184   |
|  layers.6.conv1.weight  |  [520, 184, 1, 1] | 95680  |
|   layers.6.bn1.weight   |       [520]       |  520   |
|    layers.6.bn1.bias    |       [520]       |  520   |
|  layers.6.prelu1.weight |       [520]       |  520   |
|  layers.6.conv2.weight  |   [520, 1, 3, 3]  |  4680  |
|   layers.6.bn2.weight   |       [520]       |  520   |
|    layers.6.bn2.bias    |       [520]       |  520   |
|  layers.6.prelu2.weight |       [520]       |  520   |
|  layers.6.conv3.weight  |  [184, 520, 1, 1] | 95680  |
|   layers.6.bn3.weight   |       [184]       |  184   |
|    layers.6.bn3.bias    |       [184]       |  184   |
|  layers.7.conv1.weight  |  [520, 184, 1, 1] | 95680  |
|   layers.7.bn1.weight   |       [520]       |  520   |
|    layers.7.bn1.bias    |       [520]       |  520   |
|  layers.7.prelu1.weight |       [520]       |  520   |
|  layers.7.conv2.weight  |   [520, 1, 3, 3]  |  4680  |
|   layers.7.bn2.weight   |       [520]       |  520   |
|    layers.7.bn2.bias    |       [520]       |  520   |
|  layers.7.prelu2.weight |       [520]       |  520   |
|  layers.7.conv3.weight  |  [184, 520, 1, 1] | 95680  |
|   layers.7.bn3.weight   |       [184]       |  184   |
|    layers.7.bn3.bias    |       [184]       |  184   |
|  layers.8.conv1.weight  |  [520, 184, 1, 1] | 95680  |
|   layers.8.bn1.weight   |       [520]       |  520   |
|    layers.8.bn1.bias    |       [520]       |  520   |
|  layers.8.prelu1.weight |       [520]       |  520   |
|  layers.8.conv2.weight  |   [520, 1, 3, 3]  |  4680  |
|   layers.8.bn2.weight   |       [520]       |  520   |
|    layers.8.bn2.bias    |       [520]       |  520   |
|  layers.8.prelu2.weight |       [520]       |  520   |
|  layers.8.conv3.weight  |  [184, 520, 1, 1] | 95680  |
|   layers.8.bn3.weight   |       [184]       |  184   |
|    layers.8.bn3.bias    |       [184]       |  184   |
|  layers.9.conv1.weight  |  [520, 184, 1, 1] | 95680  |
|   layers.9.bn1.weight   |       [520]       |  520   |
|    layers.9.bn1.bias    |       [520]       |  520   |
|  layers.9.prelu1.weight |       [520]       |  520   |
|  layers.9.conv2.weight  |   [520, 1, 3, 3]  |  4680  |
|   layers.9.bn2.weight   |       [520]       |  520   |
|    layers.9.bn2.bias    |       [520]       |  520   |
|  layers.9.prelu2.weight |       [520]       |  520   |
|  layers.9.conv3.weight  |  [184, 520, 1, 1] | 95680  |
|   layers.9.bn3.weight   |       [184]       |  184   |
|    layers.9.bn3.bias    |       [184]       |  184   |
|  layers.10.conv1.weight |  [520, 184, 1, 1] | 95680  |
|   layers.10.bn1.weight  |       [520]       |  520   |
|    layers.10.bn1.bias   |       [520]       |  520   |
| layers.10.prelu1.weight |       [520]       |  520   |
|  layers.10.conv2.weight |   [520, 1, 3, 3]  |  4680  |
|   layers.10.bn2.weight  |       [520]       |  520   |
|    layers.10.bn2.bias   |       [520]       |  520   |
| layers.10.prelu2.weight |       [520]       |  520   |
|  layers.10.conv3.weight |  [184, 520, 1, 1] | 95680  |
|   layers.10.bn3.weight  |       [184]       |  184   |
|    layers.10.bn3.bias   |       [184]       |  184   |
|  layers.11.conv1.weight |  [520, 184, 1, 1] | 95680  |
|   layers.11.bn1.weight  |       [520]       |  520   |
|    layers.11.bn1.bias   |       [520]       |  520   |
| layers.11.prelu1.weight |       [520]       |  520   |
|  layers.11.conv2.weight |   [520, 1, 3, 3]  |  4680  |
|   layers.11.bn2.weight  |       [520]       |  520   |
|    layers.11.bn2.bias   |       [520]       |  520   |
| layers.11.prelu2.weight |       [520]       |  520   |
|  layers.11.conv3.weight |  [184, 520, 1, 1] | 95680  |
|   layers.11.bn3.weight  |       [184]       |  184   |
|    layers.11.bn3.bias   |       [184]       |  184   |
|  layers.12.conv1.weight | [1032, 184, 1, 1] | 189888 |
|   layers.12.bn1.weight  |       [1032]      |  1032  |
|    layers.12.bn1.bias   |       [1032]      |  1032  |
| layers.12.prelu1.weight |       [1032]      |  1032  |
|  layers.12.conv2.weight |  [1032, 1, 3, 3]  |  9288  |
|   layers.12.bn2.weight  |       [1032]      |  1032  |
|    layers.12.bn2.bias   |       [1032]      |  1032  |
| layers.12.prelu2.weight |       [1032]      |  1032  |
|  layers.12.conv3.weight | [184, 1032, 1, 1] | 189888 |
|   layers.12.bn3.weight  |       [184]       |  184   |
|    layers.12.bn3.bias   |       [184]       |  184   |
|  layers.13.conv1.weight |  [520, 184, 1, 1] | 95680  |
|   layers.13.bn1.weight  |       [520]       |  520   |
|    layers.13.bn1.bias   |       [520]       |  520   |
| layers.13.prelu1.weight |       [520]       |  520   |
|  layers.13.conv2.weight |   [520, 1, 3, 3]  |  4680  |
|   layers.13.bn2.weight  |       [520]       |  520   |
|    layers.13.bn2.bias   |       [520]       |  520   |
| layers.13.prelu2.weight |       [520]       |  520   |
|  layers.13.conv3.weight |  [184, 520, 1, 1] | 95680  |
|   layers.13.bn3.weight  |       [184]       |  184   |
|    layers.13.bn3.bias   |       [184]       |  184   |
|  layers.14.conv1.weight |  [520, 184, 1, 1] | 95680  |
|   layers.14.bn1.weight  |       [520]       |  520   |
|    layers.14.bn1.bias   |       [520]       |  520   |
| layers.14.prelu1.weight |       [520]       |  520   |
|  layers.14.conv2.weight |   [520, 1, 3, 3]  |  4680  |
|   layers.14.bn2.weight  |       [520]       |  520   |
|    layers.14.bn2.bias   |       [520]       |  520   |
| layers.14.prelu2.weight |       [520]       |  520   |
|  layers.14.conv3.weight |  [184, 520, 1, 1] | 95680  |
|   layers.14.bn3.weight  |       [184]       |  184   |
|    layers.14.bn3.bias   |       [184]       |  184   |
|       conv3.weight      |  [512, 184, 1, 1] | 94208  |
|        bn3.weight       |       [512]       |  512   |
|         bn3.bias        |       [512]       |  512   |
|      prelu3.weight      |       [512]       |  512   |
|       conv4.weight      |   [512, 1, 7, 7]  | 25088  |
|        bn4.weight       |       [512]       |  512   |
|         bn4.bias        |       [512]       |  512   |
|      linear.weight      |     [512, 512]    | 262144 |
|       linear.bias       |       [512]       |  512   |
+-------------------------+-------------------+--------+
2019-06-21 18:08:33,947 INFO: |===>Number of parameters is: 2798272
2019-06-21 18:08:34,393 INFO: ------------------------FLOPs------------------------

2019-06-21 18:08:34,393 INFO: +-----------------+-------------------+-----------+------------+-------------------+----------+------------------------+
|      Layer      |    Weight Shape   | #Channels | Bias Shape |    Output Shape   |  FLOPs   |       Percentage       |
+-----------------+-------------------+-----------+------------+-------------------+----------+------------------------+
|      conv1      |   [64, 3, 3, 3]   |     3     |    [0]     |  [1, 64, 56, 56]  | 10637312 |  0.00898261494371581   |
|      conv2      |   [64, 1, 3, 3]   |     64    |    [0]     |  [1, 64, 56, 56]  | 3609536  |  0.003048051238271491  |
|  layers.0.conv1 |  [184, 64, 1, 1]  |     64    |    [0]     |  [1, 184, 56, 56] | 73282048 |  0.061882590213664816  |
|  layers.0.conv2 |   [184, 1, 3, 3]  |    184    |    [0]     |  [1, 184, 28, 28] | 2595824  | 0.0021920281602773473  |
|  layers.0.conv3 |  [96, 184, 1, 1]  |    184    |    [0]     |  [1, 96, 28, 28]  | 27621888 |  0.023325139276016763  |
|  layers.1.conv1 |  [272, 96, 1, 1]  |     96    |    [0]     |  [1, 272, 28, 28] | 40730368 |  0.03439451736113825   |
|  layers.1.conv2 |   [272, 1, 3, 3]  |    272    |    [0]     |  [1, 272, 28, 28] | 3837680  |  0.003240706084130962  |
|  layers.1.conv3 |  [96, 272, 1, 1]  |    272    |    [0]     |  [1, 96, 28, 28]  | 40868352 |  0.03451103713045532   |
|  layers.2.conv1 |  [272, 96, 1, 1]  |     96    |    [0]     |  [1, 272, 28, 28] | 40730368 |  0.03439451736113825   |
|  layers.2.conv2 |   [272, 1, 3, 3]  |    272    |    [0]     |  [1, 272, 28, 28] | 3837680  |  0.003240706084130962  |
|  layers.2.conv3 |  [96, 272, 1, 1]  |    272    |    [0]     |  [1, 96, 28, 28]  | 40868352 |  0.03451103713045532   |
|  layers.3.conv1 |  [272, 96, 1, 1]  |     96    |    [0]     |  [1, 272, 28, 28] | 40730368 |  0.03439451736113825   |
|  layers.3.conv2 |   [272, 1, 3, 3]  |    272    |    [0]     |  [1, 272, 28, 28] | 3837680  |  0.003240706084130962  |
|  layers.3.conv3 |  [96, 272, 1, 1]  |    272    |    [0]     |  [1, 96, 28, 28]  | 40868352 |  0.03451103713045532   |
|  layers.4.conv1 |  [272, 96, 1, 1]  |     96    |    [0]     |  [1, 272, 28, 28] | 40730368 |  0.03439451736113825   |
|  layers.4.conv2 |   [272, 1, 3, 3]  |    272    |    [0]     |  [1, 272, 28, 28] | 3837680  |  0.003240706084130962  |
|  layers.4.conv3 |  [96, 272, 1, 1]  |    272    |    [0]     |  [1, 96, 28, 28]  | 40868352 |  0.03451103713045532   |
|  layers.5.conv1 |  [544, 96, 1, 1]  |     96    |    [0]     |  [1, 544, 28, 28] | 81460736 |   0.0687890347222765   |
|  layers.5.conv2 |   [544, 1, 3, 3]  |    544    |    [0]     |  [1, 544, 14, 14] | 1919036  | 0.0016205185531014427  |
|  layers.5.conv3 |  [184, 544, 1, 1] |    544    |    [0]     |  [1, 184, 14, 14] | 39201568 |  0.033103531280636644  |
|  layers.6.conv1 |  [520, 184, 1, 1] |    184    |    [0]     |  [1, 520, 14, 14] | 37404640 |  0.031586126102939364  |
|  layers.6.conv2 |   [520, 1, 3, 3]  |    520    |    [0]     |  [1, 520, 14, 14] | 1834364  |  0.001549017785565969  |
|  layers.6.conv3 |  [184, 520, 1, 1] |    520    |    [0]     |  [1, 184, 14, 14] | 37470496 |  0.03164173781102251   |
|  layers.7.conv1 |  [520, 184, 1, 1] |    184    |    [0]     |  [1, 520, 14, 14] | 37404640 |  0.031586126102939364  |
|  layers.7.conv2 |   [520, 1, 3, 3]  |    520    |    [0]     |  [1, 520, 14, 14] | 1834364  |  0.001549017785565969  |
|  layers.7.conv3 |  [184, 520, 1, 1] |    520    |    [0]     |  [1, 184, 14, 14] | 37470496 |  0.03164173781102251   |
|  layers.8.conv1 |  [520, 184, 1, 1] |    184    |    [0]     |  [1, 520, 14, 14] | 37404640 |  0.031586126102939364  |
|  layers.8.conv2 |   [520, 1, 3, 3]  |    520    |    [0]     |  [1, 520, 14, 14] | 1834364  |  0.001549017785565969  |
|  layers.8.conv3 |  [184, 520, 1, 1] |    520    |    [0]     |  [1, 184, 14, 14] | 37470496 |  0.03164173781102251   |
|  layers.9.conv1 |  [520, 184, 1, 1] |    184    |    [0]     |  [1, 520, 14, 14] | 37404640 |  0.031586126102939364  |
|  layers.9.conv2 |   [520, 1, 3, 3]  |    520    |    [0]     |  [1, 520, 14, 14] | 1834364  |  0.001549017785565969  |
|  layers.9.conv3 |  [184, 520, 1, 1] |    520    |    [0]     |  [1, 184, 14, 14] | 37470496 |  0.03164173781102251   |
| layers.10.conv1 |  [520, 184, 1, 1] |    184    |    [0]     |  [1, 520, 14, 14] | 37404640 |  0.031586126102939364  |
| layers.10.conv2 |   [520, 1, 3, 3]  |    520    |    [0]     |  [1, 520, 14, 14] | 1834364  |  0.001549017785565969  |
| layers.10.conv3 |  [184, 520, 1, 1] |    520    |    [0]     |  [1, 184, 14, 14] | 37470496 |  0.03164173781102251   |
| layers.11.conv1 |  [520, 184, 1, 1] |    184    |    [0]     |  [1, 520, 14, 14] | 37404640 |  0.031586126102939364  |
| layers.11.conv2 |   [520, 1, 3, 3]  |    520    |    [0]     |  [1, 520, 14, 14] | 1834364  |  0.001549017785565969  |
| layers.11.conv3 |  [184, 520, 1, 1] |    520    |    [0]     |  [1, 184, 14, 14] | 37470496 |  0.03164173781102251   |
| layers.12.conv1 | [1032, 184, 1, 1] |    184    |    [0]     | [1, 1032, 14, 14] | 74233824 |  0.06268631180429506   |
| layers.12.conv2 |  [1032, 1, 3, 3]  |    1032   |    [0]     |  [1, 1032, 7, 7]  |  910175  | 0.0007685918732473521  |
| layers.12.conv3 | [184, 1032, 1, 1] |    1032   |    [0]     |   [1, 184, 7, 7]  | 18600008 |  0.01570666629069765   |
| layers.13.conv1 |  [520, 184, 1, 1] |    184    |    [0]     |   [1, 520, 7, 7]  | 9351160  |  0.007896531525734841  |
| layers.13.conv2 |   [520, 1, 3, 3]  |    520    |    [0]     |   [1, 520, 7, 7]  |  458591  | 0.00038725444639149225 |
| layers.13.conv3 |  [184, 520, 1, 1] |    520    |    [0]     |   [1, 184, 7, 7]  | 9367624  |  0.007910434452755627  |
| layers.14.conv1 |  [520, 184, 1, 1] |    184    |    [0]     |   [1, 520, 7, 7]  | 9351160  |  0.007896531525734841  |
| layers.14.conv2 |   [520, 1, 3, 3]  |    520    |    [0]     |   [1, 520, 7, 7]  |  458591  | 0.00038725444639149225 |
| layers.14.conv3 |  [184, 520, 1, 1] |    520    |    [0]     |   [1, 184, 7, 7]  | 9367624  |  0.007910434452755627  |
|      conv3      |  [512, 184, 1, 1] |    184    |    [0]     |   [1, 512, 7, 7]  | 9207296  |  0.007775046425338921  |
|      conv4      |   [512, 1, 7, 7]  |    512    |    [0]     |   [1, 512, 1, 1]  |  50175   | 4.2369980762145624e-05 |
|      linear     |     [512, 512]    |    512    |   [512]    |      [1, 512]     |  524288  | 0.0004427318878689348  |
+-----------------+-------------------+-----------+------------+-------------------+----------+------------------------+
2019-06-21 18:08:34,412 INFO: |===>Total FLOPs: 1.184211e+09
2019-06-21 18:08:40,731 INFO: ------------------------number of parameters------------------------

2019-06-21 18:08:40,732 INFO: +-------------------------+------------------+--------+
|        Param name       |      Shape       |  Dim   |
+-------------------------+------------------+--------+
|       conv1.weight      |  [64, 3, 3, 3]   |  1728  |
|        bn1.weight       |       [64]       |   64   |
|         bn1.bias        |       [64]       |   64   |
|      prelu1.weight      |       [64]       |   64   |
|       conv2.weight      |  [64, 1, 3, 3]   |  576   |
|        bn2.weight       |       [64]       |   64   |
|         bn2.bias        |       [64]       |   64   |
|      prelu2.weight      |       [64]       |   64   |
|  layers.0.conv1.weight  | [168, 64, 1, 1]  | 10752  |
|   layers.0.bn1.weight   |      [168]       |  168   |
|    layers.0.bn1.bias    |      [168]       |  168   |
|  layers.0.prelu1.weight |      [168]       |  168   |
|  layers.0.conv2.weight  |  [168, 1, 3, 3]  |  1512  |
|   layers.0.bn2.weight   |      [168]       |  168   |
|    layers.0.bn2.bias    |      [168]       |  168   |
|  layers.0.prelu2.weight |      [168]       |  168   |
|  layers.0.conv3.weight  | [88, 168, 1, 1]  | 14784  |
|   layers.0.bn3.weight   |       [88]       |   88   |
|    layers.0.bn3.bias    |       [88]       |   88   |
|  layers.1.conv1.weight  | [232, 88, 1, 1]  | 20416  |
|   layers.1.bn1.weight   |      [232]       |  232   |
|    layers.1.bn1.bias    |      [232]       |  232   |
|  layers.1.prelu1.weight |      [232]       |  232   |
|  layers.1.conv2.weight  |  [232, 1, 3, 3]  |  2088  |
|   layers.1.bn2.weight   |      [232]       |  232   |
|    layers.1.bn2.bias    |      [232]       |  232   |
|  layers.1.prelu2.weight |      [232]       |  232   |
|  layers.1.conv3.weight  | [88, 232, 1, 1]  | 20416  |
|   layers.1.bn3.weight   |       [88]       |   88   |
|    layers.1.bn3.bias    |       [88]       |   88   |
|  layers.2.conv1.weight  | [232, 88, 1, 1]  | 20416  |
|   layers.2.bn1.weight   |      [232]       |  232   |
|    layers.2.bn1.bias    |      [232]       |  232   |
|  layers.2.prelu1.weight |      [232]       |  232   |
|  layers.2.conv2.weight  |  [232, 1, 3, 3]  |  2088  |
|   layers.2.bn2.weight   |      [232]       |  232   |
|    layers.2.bn2.bias    |      [232]       |  232   |
|  layers.2.prelu2.weight |      [232]       |  232   |
|  layers.2.conv3.weight  | [88, 232, 1, 1]  | 20416  |
|   layers.2.bn3.weight   |       [88]       |   88   |
|    layers.2.bn3.bias    |       [88]       |   88   |
|  layers.3.conv1.weight  | [232, 88, 1, 1]  | 20416  |
|   layers.3.bn1.weight   |      [232]       |  232   |
|    layers.3.bn1.bias    |      [232]       |  232   |
|  layers.3.prelu1.weight |      [232]       |  232   |
|  layers.3.conv2.weight  |  [232, 1, 3, 3]  |  2088  |
|   layers.3.bn2.weight   |      [232]       |  232   |
|    layers.3.bn2.bias    |      [232]       |  232   |
|  layers.3.prelu2.weight |      [232]       |  232   |
|  layers.3.conv3.weight  | [88, 232, 1, 1]  | 20416  |
|   layers.3.bn3.weight   |       [88]       |   88   |
|    layers.3.bn3.bias    |       [88]       |   88   |
|  layers.4.conv1.weight  | [232, 88, 1, 1]  | 20416  |
|   layers.4.bn1.weight   |      [232]       |  232   |
|    layers.4.bn1.bias    |      [232]       |  232   |
|  layers.4.prelu1.weight |      [232]       |  232   |
|  layers.4.conv2.weight  |  [232, 1, 3, 3]  |  2088  |
|   layers.4.bn2.weight   |      [232]       |  232   |
|    layers.4.bn2.bias    |      [232]       |  232   |
|  layers.4.prelu2.weight |      [232]       |  232   |
|  layers.4.conv3.weight  | [88, 232, 1, 1]  | 20416  |
|   layers.4.bn3.weight   |       [88]       |   88   |
|    layers.4.bn3.bias    |       [88]       |   88   |
|  layers.5.conv1.weight  | [464, 88, 1, 1]  | 40832  |
|   layers.5.bn1.weight   |      [464]       |  464   |
|    layers.5.bn1.bias    |      [464]       |  464   |
|  layers.5.prelu1.weight |      [464]       |  464   |
|  layers.5.conv2.weight  |  [464, 1, 3, 3]  |  4176  |
|   layers.5.bn2.weight   |      [464]       |  464   |
|    layers.5.bn2.bias    |      [464]       |  464   |
|  layers.5.prelu2.weight |      [464]       |  464   |
|  layers.5.conv3.weight  | [168, 464, 1, 1] | 77952  |
|   layers.5.bn3.weight   |      [168]       |  168   |
|    layers.5.bn3.bias    |      [168]       |  168   |
|  layers.6.conv1.weight  | [440, 168, 1, 1] | 73920  |
|   layers.6.bn1.weight   |      [440]       |  440   |
|    layers.6.bn1.bias    |      [440]       |  440   |
|  layers.6.prelu1.weight |      [440]       |  440   |
|  layers.6.conv2.weight  |  [440, 1, 3, 3]  |  3960  |
|   layers.6.bn2.weight   |      [440]       |  440   |
|    layers.6.bn2.bias    |      [440]       |  440   |
|  layers.6.prelu2.weight |      [440]       |  440   |
|  layers.6.conv3.weight  | [168, 440, 1, 1] | 73920  |
|   layers.6.bn3.weight   |      [168]       |  168   |
|    layers.6.bn3.bias    |      [168]       |  168   |
|  layers.7.conv1.weight  | [440, 168, 1, 1] | 73920  |
|   layers.7.bn1.weight   |      [440]       |  440   |
|    layers.7.bn1.bias    |      [440]       |  440   |
|  layers.7.prelu1.weight |      [440]       |  440   |
|  layers.7.conv2.weight  |  [440, 1, 3, 3]  |  3960  |
|   layers.7.bn2.weight   |      [440]       |  440   |
|    layers.7.bn2.bias    |      [440]       |  440   |
|  layers.7.prelu2.weight |      [440]       |  440   |
|  layers.7.conv3.weight  | [168, 440, 1, 1] | 73920  |
|   layers.7.bn3.weight   |      [168]       |  168   |
|    layers.7.bn3.bias    |      [168]       |  168   |
|  layers.8.conv1.weight  | [440, 168, 1, 1] | 73920  |
|   layers.8.bn1.weight   |      [440]       |  440   |
|    layers.8.bn1.bias    |      [440]       |  440   |
|  layers.8.prelu1.weight |      [440]       |  440   |
|  layers.8.conv2.weight  |  [440, 1, 3, 3]  |  3960  |
|   layers.8.bn2.weight   |      [440]       |  440   |
|    layers.8.bn2.bias    |      [440]       |  440   |
|  layers.8.prelu2.weight |      [440]       |  440   |
|  layers.8.conv3.weight  | [168, 440, 1, 1] | 73920  |
|   layers.8.bn3.weight   |      [168]       |  168   |
|    layers.8.bn3.bias    |      [168]       |  168   |
|  layers.9.conv1.weight  | [440, 168, 1, 1] | 73920  |
|   layers.9.bn1.weight   |      [440]       |  440   |
|    layers.9.bn1.bias    |      [440]       |  440   |
|  layers.9.prelu1.weight |      [440]       |  440   |
|  layers.9.conv2.weight  |  [440, 1, 3, 3]  |  3960  |
|   layers.9.bn2.weight   |      [440]       |  440   |
|    layers.9.bn2.bias    |      [440]       |  440   |
|  layers.9.prelu2.weight |      [440]       |  440   |
|  layers.9.conv3.weight  | [168, 440, 1, 1] | 73920  |
|   layers.9.bn3.weight   |      [168]       |  168   |
|    layers.9.bn3.bias    |      [168]       |  168   |
|  layers.10.conv1.weight | [440, 168, 1, 1] | 73920  |
|   layers.10.bn1.weight  |      [440]       |  440   |
|    layers.10.bn1.bias   |      [440]       |  440   |
| layers.10.prelu1.weight |      [440]       |  440   |
|  layers.10.conv2.weight |  [440, 1, 3, 3]  |  3960  |
|   layers.10.bn2.weight  |      [440]       |  440   |
|    layers.10.bn2.bias   |      [440]       |  440   |
| layers.10.prelu2.weight |      [440]       |  440   |
|  layers.10.conv3.weight | [168, 440, 1, 1] | 73920  |
|   layers.10.bn3.weight  |      [168]       |  168   |
|    layers.10.bn3.bias   |      [168]       |  168   |
|  layers.11.conv1.weight | [440, 168, 1, 1] | 73920  |
|   layers.11.bn1.weight  |      [440]       |  440   |
|    layers.11.bn1.bias   |      [440]       |  440   |
| layers.11.prelu1.weight |      [440]       |  440   |
|  layers.11.conv2.weight |  [440, 1, 3, 3]  |  3960  |
|   layers.11.bn2.weight  |      [440]       |  440   |
|    layers.11.bn2.bias   |      [440]       |  440   |
| layers.11.prelu2.weight |      [440]       |  440   |
|  layers.11.conv3.weight | [168, 440, 1, 1] | 73920  |
|   layers.11.bn3.weight  |      [168]       |  168   |
|    layers.11.bn3.bias   |      [168]       |  168   |
|  layers.12.conv1.weight | [880, 168, 1, 1] | 147840 |
|   layers.12.bn1.weight  |      [880]       |  880   |
|    layers.12.bn1.bias   |      [880]       |  880   |
| layers.12.prelu1.weight |      [880]       |  880   |
|  layers.12.conv2.weight |  [880, 1, 3, 3]  |  7920  |
|   layers.12.bn2.weight  |      [880]       |  880   |
|    layers.12.bn2.bias   |      [880]       |  880   |
| layers.12.prelu2.weight |      [880]       |  880   |
|  layers.12.conv3.weight | [168, 880, 1, 1] | 147840 |
|   layers.12.bn3.weight  |      [168]       |  168   |
|    layers.12.bn3.bias   |      [168]       |  168   |
|  layers.13.conv1.weight | [440, 168, 1, 1] | 73920  |
|   layers.13.bn1.weight  |      [440]       |  440   |
|    layers.13.bn1.bias   |      [440]       |  440   |
| layers.13.prelu1.weight |      [440]       |  440   |
|  layers.13.conv2.weight |  [440, 1, 3, 3]  |  3960  |
|   layers.13.bn2.weight  |      [440]       |  440   |
|    layers.13.bn2.bias   |      [440]       |  440   |
| layers.13.prelu2.weight |      [440]       |  440   |
|  layers.13.conv3.weight | [168, 440, 1, 1] | 73920  |
|   layers.13.bn3.weight  |      [168]       |  168   |
|    layers.13.bn3.bias   |      [168]       |  168   |
|  layers.14.conv1.weight | [440, 168, 1, 1] | 73920  |
|   layers.14.bn1.weight  |      [440]       |  440   |
|    layers.14.bn1.bias   |      [440]       |  440   |
| layers.14.prelu1.weight |      [440]       |  440   |
|  layers.14.conv2.weight |  [440, 1, 3, 3]  |  3960  |
|   layers.14.bn2.weight  |      [440]       |  440   |
|    layers.14.bn2.bias   |      [440]       |  440   |
| layers.14.prelu2.weight |      [440]       |  440   |
|  layers.14.conv3.weight | [168, 440, 1, 1] | 73920  |
|   layers.14.bn3.weight  |      [168]       |  168   |
|    layers.14.bn3.bias   |      [168]       |  168   |
|       conv3.weight      | [512, 168, 1, 1] | 86016  |
|        bn3.weight       |      [512]       |  512   |
|         bn3.bias        |      [512]       |  512   |
|      prelu3.weight      |      [512]       |  512   |
|       conv4.weight      |  [512, 1, 7, 7]  | 25088  |
|        bn4.weight       |      [512]       |  512   |
|         bn4.bias        |      [512]       |  512   |
|      linear.weight      |    [512, 512]    | 262144 |
|       linear.bias       |      [512]       |  512   |
+-------------------------+------------------+--------+
2019-06-21 18:08:40,750 INFO: |===>Number of parameters is: 2258696
2019-06-21 18:08:41,148 INFO: ------------------------FLOPs------------------------

2019-06-21 18:08:41,149 INFO: +-----------------+------------------+-----------+------------+------------------+----------+------------------------+
|      Layer      |   Weight Shape   | #Channels | Bias Shape |   Output Shape   |  FLOPs   |       Percentage       |
+-----------------+------------------+-----------+------------+------------------+----------+------------------------+
|      conv1      |  [64, 3, 3, 3]   |     3     |    [0]     | [1, 64, 56, 56]  | 10637312 |  0.011332265348278102  |
|      conv2      |  [64, 1, 3, 3]   |     64    |    [0]     | [1, 64, 56, 56]  | 3609536  | 0.0038453530117535657  |
|  layers.0.conv1 | [168, 64, 1, 1]  |     64    |    [0]     | [1, 168, 56, 56] | 66909696 |  0.07128101812230589   |
|  layers.0.conv2 |  [168, 1, 3, 3]  |    168    |    [0]     | [1, 168, 28, 28] | 2370032  | 0.0025248701465097802  |
|  layers.0.conv3 | [88, 168, 1, 1]  |    168    |    [0]     | [1, 88, 28, 28]  | 23112320 |  0.024622286443634907  |
|  layers.1.conv1 | [232, 88, 1, 1]  |     88    |    [0]     | [1, 232, 28, 28] | 31830400 |  0.03390993316185811   |
|  layers.1.conv2 |  [232, 1, 3, 3]  |    232    |    [0]     | [1, 232, 28, 28] | 3273200  |  0.003487043619476789  |
|  layers.1.conv3 | [88, 232, 1, 1]  |    232    |    [0]     | [1, 88, 28, 28]  | 31943296 |  0.03403020484597899   |
|  layers.2.conv1 | [232, 88, 1, 1]  |     88    |    [0]     | [1, 232, 28, 28] | 31830400 |  0.03390993316185811   |
|  layers.2.conv2 |  [232, 1, 3, 3]  |    232    |    [0]     | [1, 232, 28, 28] | 3273200  |  0.003487043619476789  |
|  layers.2.conv3 | [88, 232, 1, 1]  |    232    |    [0]     | [1, 88, 28, 28]  | 31943296 |  0.03403020484597899   |
|  layers.3.conv1 | [232, 88, 1, 1]  |     88    |    [0]     | [1, 232, 28, 28] | 31830400 |  0.03390993316185811   |
|  layers.3.conv2 |  [232, 1, 3, 3]  |    232    |    [0]     | [1, 232, 28, 28] | 3273200  |  0.003487043619476789  |
|  layers.3.conv3 | [88, 232, 1, 1]  |    232    |    [0]     | [1, 88, 28, 28]  | 31943296 |  0.03403020484597899   |
|  layers.4.conv1 | [232, 88, 1, 1]  |     88    |    [0]     | [1, 232, 28, 28] | 31830400 |  0.03390993316185811   |
|  layers.4.conv2 |  [232, 1, 3, 3]  |    232    |    [0]     | [1, 232, 28, 28] | 3273200  |  0.003487043619476789  |
|  layers.4.conv3 | [88, 232, 1, 1]  |    232    |    [0]     | [1, 88, 28, 28]  | 31943296 |  0.03403020484597899   |
|  layers.5.conv1 | [464, 88, 1, 1]  |     88    |    [0]     | [1, 464, 28, 28] | 63660800 |  0.06781986632371623   |
|  layers.5.conv2 |  [464, 1, 3, 3]  |    464    |    [0]     | [1, 464, 14, 14] | 1636796  | 0.0017437306147455487  |
|  layers.5.conv3 | [168, 464, 1, 1] |    464    |    [0]     | [1, 168, 14, 14] | 30524256 |  0.03251845659418187   |
|  layers.6.conv1 | [440, 168, 1, 1] |    168    |    [0]     | [1, 440, 14, 14] | 28890400 |  0.030777858054543635  |
|  layers.6.conv2 |  [440, 1, 3, 3]  |    440    |    [0]     | [1, 440, 14, 14] | 1552124  | 0.0016535268516548918  |
|  layers.6.conv3 | [168, 440, 1, 1] |    440    |    [0]     | [1, 168, 14, 14] | 28943712 |  0.030834653016489605  |
|  layers.7.conv1 | [440, 168, 1, 1] |    168    |    [0]     | [1, 440, 14, 14] | 28890400 |  0.030777858054543635  |
|  layers.7.conv2 |  [440, 1, 3, 3]  |    440    |    [0]     | [1, 440, 14, 14] | 1552124  | 0.0016535268516548918  |
|  layers.7.conv3 | [168, 440, 1, 1] |    440    |    [0]     | [1, 168, 14, 14] | 28943712 |  0.030834653016489605  |
|  layers.8.conv1 | [440, 168, 1, 1] |    168    |    [0]     | [1, 440, 14, 14] | 28890400 |  0.030777858054543635  |
|  layers.8.conv2 |  [440, 1, 3, 3]  |    440    |    [0]     | [1, 440, 14, 14] | 1552124  | 0.0016535268516548918  |
|  layers.8.conv3 | [168, 440, 1, 1] |    440    |    [0]     | [1, 168, 14, 14] | 28943712 |  0.030834653016489605  |
|  layers.9.conv1 | [440, 168, 1, 1] |    168    |    [0]     | [1, 440, 14, 14] | 28890400 |  0.030777858054543635  |
|  layers.9.conv2 |  [440, 1, 3, 3]  |    440    |    [0]     | [1, 440, 14, 14] | 1552124  | 0.0016535268516548918  |
|  layers.9.conv3 | [168, 440, 1, 1] |    440    |    [0]     | [1, 168, 14, 14] | 28943712 |  0.030834653016489605  |
| layers.10.conv1 | [440, 168, 1, 1] |    168    |    [0]     | [1, 440, 14, 14] | 28890400 |  0.030777858054543635  |
| layers.10.conv2 |  [440, 1, 3, 3]  |    440    |    [0]     | [1, 440, 14, 14] | 1552124  | 0.0016535268516548918  |
| layers.10.conv3 | [168, 440, 1, 1] |    440    |    [0]     | [1, 168, 14, 14] | 28943712 |  0.030834653016489605  |
| layers.11.conv1 | [440, 168, 1, 1] |    168    |    [0]     | [1, 440, 14, 14] | 28890400 |  0.030777858054543635  |
| layers.11.conv2 |  [440, 1, 3, 3]  |    440    |    [0]     | [1, 440, 14, 14] | 1552124  | 0.0016535268516548918  |
| layers.11.conv3 | [168, 440, 1, 1] |    440    |    [0]     | [1, 168, 14, 14] | 28943712 |  0.030834653016489605  |
| layers.12.conv1 | [880, 168, 1, 1] |    168    |    [0]     | [1, 880, 14, 14] | 57780800 |  0.06155571610908727   |
| layers.12.conv2 |  [880, 1, 3, 3]  |    880    |    [0]     |  [1, 880, 7, 7]  |  776111  | 0.0008268156270792344  |
| layers.12.conv3 | [168, 880, 1, 1] |    880    |    [0]     |  [1, 168, 7, 7]  | 14480088 |  0.015426096318545282  |
| layers.13.conv1 | [440, 168, 1, 1] |    168    |    [0]     |  [1, 440, 7, 7]  | 7222600  |  0.007694464513635909  |
| layers.13.conv2 |  [440, 1, 3, 3]  |    440    |    [0]     |  [1, 440, 7, 7]  |  388031  | 0.00041338171291372295 |
| layers.13.conv3 | [168, 440, 1, 1] |    440    |    [0]     |  [1, 168, 7, 7]  | 7235928  |  0.007708663254122401  |
| layers.14.conv1 | [440, 168, 1, 1] |    168    |    [0]     |  [1, 440, 7, 7]  | 7222600  |  0.007694464513635909  |
| layers.14.conv2 |  [440, 1, 3, 3]  |    440    |    [0]     |  [1, 440, 7, 7]  |  388031  | 0.00041338171291372295 |
| layers.14.conv3 | [168, 440, 1, 1] |    440    |    [0]     |  [1, 168, 7, 7]  | 7235928  |  0.007708663254122401  |
|      conv3      | [512, 168, 1, 1] |    168    |    [0]     |  [1, 512, 7, 7]  | 8404480  |  0.00895355870677633   |
|      conv4      |  [512, 1, 7, 7]  |    512    |    [0]     |  [1, 512, 1, 1]  |  50175   | 5.3453016499831325e-05 |
|      linear     |    [512, 512]    |    512    |   [512]    |     [1, 512]     |  524288  | 0.0005585406101577193  |
+-----------------+------------------+-----------+------------+------------------+----------+------------------------+
2019-06-21 18:08:41,168 INFO: |===>Total FLOPs: 9.386748e+08
2019-06-21 18:08:52,647 INFO: ------------------------number of parameters------------------------

2019-06-21 18:08:52,648 INFO: +-------------------------+------------------+--------+
|        Param name       |      Shape       |  Dim   |
+-------------------------+------------------+--------+
|       conv1.weight      |  [64, 3, 3, 3]   |  1728  |
|        bn1.weight       |       [64]       |   64   |
|         bn1.bias        |       [64]       |   64   |
|      prelu1.weight      |       [64]       |   64   |
|       conv2.weight      |  [64, 1, 3, 3]   |  576   |
|        bn2.weight       |       [64]       |   64   |
|         bn2.bias        |       [64]       |   64   |
|      prelu2.weight      |       [64]       |   64   |
|  layers.0.conv1.weight  | [176, 64, 1, 1]  | 11264  |
|   layers.0.bn1.weight   |      [176]       |  176   |
|    layers.0.bn1.bias    |      [176]       |  176   |
|  layers.0.prelu1.weight |      [176]       |  176   |
|  layers.0.conv2.weight  |  [176, 1, 3, 3]  |  1584  |
|   layers.0.bn2.weight   |      [176]       |  176   |
|    layers.0.bn2.bias    |      [176]       |  176   |
|  layers.0.prelu2.weight |      [176]       |  176   |
|  layers.0.conv3.weight  | [88, 176, 1, 1]  | 15488  |
|   layers.0.bn3.weight   |       [88]       |   88   |
|    layers.0.bn3.bias    |       [88]       |   88   |
|  layers.1.conv1.weight  | [240, 88, 1, 1]  | 21120  |
|   layers.1.bn1.weight   |      [240]       |  240   |
|    layers.1.bn1.bias    |      [240]       |  240   |
|  layers.1.prelu1.weight |      [240]       |  240   |
|  layers.1.conv2.weight  |  [240, 1, 3, 3]  |  2160  |
|   layers.1.bn2.weight   |      [240]       |  240   |
|    layers.1.bn2.bias    |      [240]       |  240   |
|  layers.1.prelu2.weight |      [240]       |  240   |
|  layers.1.conv3.weight  | [88, 240, 1, 1]  | 21120  |
|   layers.1.bn3.weight   |       [88]       |   88   |
|    layers.1.bn3.bias    |       [88]       |   88   |
|  layers.2.conv1.weight  | [240, 88, 1, 1]  | 21120  |
|   layers.2.bn1.weight   |      [240]       |  240   |
|    layers.2.bn1.bias    |      [240]       |  240   |
|  layers.2.prelu1.weight |      [240]       |  240   |
|  layers.2.conv2.weight  |  [240, 1, 3, 3]  |  2160  |
|   layers.2.bn2.weight   |      [240]       |  240   |
|    layers.2.bn2.bias    |      [240]       |  240   |
|  layers.2.prelu2.weight |      [240]       |  240   |
|  layers.2.conv3.weight  | [88, 240, 1, 1]  | 21120  |
|   layers.2.bn3.weight   |       [88]       |   88   |
|    layers.2.bn3.bias    |       [88]       |   88   |
|  layers.3.conv1.weight  | [240, 88, 1, 1]  | 21120  |
|   layers.3.bn1.weight   |      [240]       |  240   |
|    layers.3.bn1.bias    |      [240]       |  240   |
|  layers.3.prelu1.weight |      [240]       |  240   |
|  layers.3.conv2.weight  |  [240, 1, 3, 3]  |  2160  |
|   layers.3.bn2.weight   |      [240]       |  240   |
|    layers.3.bn2.bias    |      [240]       |  240   |
|  layers.3.prelu2.weight |      [240]       |  240   |
|  layers.3.conv3.weight  | [88, 240, 1, 1]  | 21120  |
|   layers.3.bn3.weight   |       [88]       |   88   |
|    layers.3.bn3.bias    |       [88]       |   88   |
|  layers.4.conv1.weight  | [240, 88, 1, 1]  | 21120  |
|   layers.4.bn1.weight   |      [240]       |  240   |
|    layers.4.bn1.bias    |      [240]       |  240   |
|  layers.4.prelu1.weight |      [240]       |  240   |
|  layers.4.conv2.weight  |  [240, 1, 3, 3]  |  2160  |
|   layers.4.bn2.weight   |      [240]       |  240   |
|    layers.4.bn2.bias    |      [240]       |  240   |
|  layers.4.prelu2.weight |      [240]       |  240   |
|  layers.4.conv3.weight  | [88, 240, 1, 1]  | 21120  |
|   layers.4.bn3.weight   |       [88]       |   88   |
|    layers.4.bn3.bias    |       [88]       |   88   |
|  layers.5.conv1.weight  | [480, 88, 1, 1]  | 42240  |
|   layers.5.bn1.weight   |      [480]       |  480   |
|    layers.5.bn1.bias    |      [480]       |  480   |
|  layers.5.prelu1.weight |      [480]       |  480   |
|  layers.5.conv2.weight  |  [480, 1, 3, 3]  |  4320  |
|   layers.5.bn2.weight   |      [480]       |  480   |
|    layers.5.bn2.bias    |      [480]       |  480   |
|  layers.5.prelu2.weight |      [480]       |  480   |
|  layers.5.conv3.weight  | [176, 480, 1, 1] | 84480  |
|   layers.5.bn3.weight   |      [176]       |  176   |
|    layers.5.bn3.bias    |      [176]       |  176   |
|  layers.6.conv1.weight  | [480, 176, 1, 1] | 84480  |
|   layers.6.bn1.weight   |      [480]       |  480   |
|    layers.6.bn1.bias    |      [480]       |  480   |
|  layers.6.prelu1.weight |      [480]       |  480   |
|  layers.6.conv2.weight  |  [480, 1, 3, 3]  |  4320  |
|   layers.6.bn2.weight   |      [480]       |  480   |
|    layers.6.bn2.bias    |      [480]       |  480   |
|  layers.6.prelu2.weight |      [480]       |  480   |
|  layers.6.conv3.weight  | [176, 480, 1, 1] | 84480  |
|   layers.6.bn3.weight   |      [176]       |  176   |
|    layers.6.bn3.bias    |      [176]       |  176   |
|  layers.7.conv1.weight  | [480, 176, 1, 1] | 84480  |
|   layers.7.bn1.weight   |      [480]       |  480   |
|    layers.7.bn1.bias    |      [480]       |  480   |
|  layers.7.prelu1.weight |      [480]       |  480   |
|  layers.7.conv2.weight  |  [480, 1, 3, 3]  |  4320  |
|   layers.7.bn2.weight   |      [480]       |  480   |
|    layers.7.bn2.bias    |      [480]       |  480   |
|  layers.7.prelu2.weight |      [480]       |  480   |
|  layers.7.conv3.weight  | [176, 480, 1, 1] | 84480  |
|   layers.7.bn3.weight   |      [176]       |  176   |
|    layers.7.bn3.bias    |      [176]       |  176   |
|  layers.8.conv1.weight  | [480, 176, 1, 1] | 84480  |
|   layers.8.bn1.weight   |      [480]       |  480   |
|    layers.8.bn1.bias    |      [480]       |  480   |
|  layers.8.prelu1.weight |      [480]       |  480   |
|  layers.8.conv2.weight  |  [480, 1, 3, 3]  |  4320  |
|   layers.8.bn2.weight   |      [480]       |  480   |
|    layers.8.bn2.bias    |      [480]       |  480   |
|  layers.8.prelu2.weight |      [480]       |  480   |
|  layers.8.conv3.weight  | [176, 480, 1, 1] | 84480  |
|   layers.8.bn3.weight   |      [176]       |  176   |
|    layers.8.bn3.bias    |      [176]       |  176   |
|  layers.9.conv1.weight  | [480, 176, 1, 1] | 84480  |
|   layers.9.bn1.weight   |      [480]       |  480   |
|    layers.9.bn1.bias    |      [480]       |  480   |
|  layers.9.prelu1.weight |      [480]       |  480   |
|  layers.9.conv2.weight  |  [480, 1, 3, 3]  |  4320  |
|   layers.9.bn2.weight   |      [480]       |  480   |
|    layers.9.bn2.bias    |      [480]       |  480   |
|  layers.9.prelu2.weight |      [480]       |  480   |
|  layers.9.conv3.weight  | [176, 480, 1, 1] | 84480  |
|   layers.9.bn3.weight   |      [176]       |  176   |
|    layers.9.bn3.bias    |      [176]       |  176   |
|  layers.10.conv1.weight | [480, 176, 1, 1] | 84480  |
|   layers.10.bn1.weight  |      [480]       |  480   |
|    layers.10.bn1.bias   |      [480]       |  480   |
| layers.10.prelu1.weight |      [480]       |  480   |
|  layers.10.conv2.weight |  [480, 1, 3, 3]  |  4320  |
|   layers.10.bn2.weight  |      [480]       |  480   |
|    layers.10.bn2.bias   |      [480]       |  480   |
| layers.10.prelu2.weight |      [480]       |  480   |
|  layers.10.conv3.weight | [176, 480, 1, 1] | 84480  |
|   layers.10.bn3.weight  |      [176]       |  176   |
|    layers.10.bn3.bias   |      [176]       |  176   |
|  layers.11.conv1.weight | [480, 176, 1, 1] | 84480  |
|   layers.11.bn1.weight  |      [480]       |  480   |
|    layers.11.bn1.bias   |      [480]       |  480   |
| layers.11.prelu1.weight |      [480]       |  480   |
|  layers.11.conv2.weight |  [480, 1, 3, 3]  |  4320  |
|   layers.11.bn2.weight  |      [480]       |  480   |
|    layers.11.bn2.bias   |      [480]       |  480   |
| layers.11.prelu2.weight |      [480]       |  480   |
|  layers.11.conv3.weight | [176, 480, 1, 1] | 84480  |
|   layers.11.bn3.weight  |      [176]       |  176   |
|    layers.11.bn3.bias   |      [176]       |  176   |
|  layers.12.conv1.weight | [952, 176, 1, 1] | 167552 |
|   layers.12.bn1.weight  |      [952]       |  952   |
|    layers.12.bn1.bias   |      [952]       |  952   |
| layers.12.prelu1.weight |      [952]       |  952   |
|  layers.12.conv2.weight |  [952, 1, 3, 3]  |  8568  |
|   layers.12.bn2.weight  |      [952]       |  952   |
|    layers.12.bn2.bias   |      [952]       |  952   |
| layers.12.prelu2.weight |      [952]       |  952   |
|  layers.12.conv3.weight | [176, 952, 1, 1] | 167552 |
|   layers.12.bn3.weight  |      [176]       |  176   |
|    layers.12.bn3.bias   |      [176]       |  176   |
|  layers.13.conv1.weight | [480, 176, 1, 1] | 84480  |
|   layers.13.bn1.weight  |      [480]       |  480   |
|    layers.13.bn1.bias   |      [480]       |  480   |
| layers.13.prelu1.weight |      [480]       |  480   |
|  layers.13.conv2.weight |  [480, 1, 3, 3]  |  4320  |
|   layers.13.bn2.weight  |      [480]       |  480   |
|    layers.13.bn2.bias   |      [480]       |  480   |
| layers.13.prelu2.weight |      [480]       |  480   |
|  layers.13.conv3.weight | [176, 480, 1, 1] | 84480  |
|   layers.13.bn3.weight  |      [176]       |  176   |
|    layers.13.bn3.bias   |      [176]       |  176   |
|  layers.14.conv1.weight | [480, 176, 1, 1] | 84480  |
|   layers.14.bn1.weight  |      [480]       |  480   |
|    layers.14.bn1.bias   |      [480]       |  480   |
| layers.14.prelu1.weight |      [480]       |  480   |
|  layers.14.conv2.weight |  [480, 1, 3, 3]  |  4320  |
|   layers.14.bn2.weight  |      [480]       |  480   |
|    layers.14.bn2.bias   |      [480]       |  480   |
| layers.14.prelu2.weight |      [480]       |  480   |
|  layers.14.conv3.weight | [176, 480, 1, 1] | 84480  |
|   layers.14.bn3.weight  |      [176]       |  176   |
|    layers.14.bn3.bias   |      [176]       |  176   |
|       conv3.weight      | [512, 176, 1, 1] | 90112  |
|        bn3.weight       |      [512]       |  512   |
|         bn3.bias        |      [512]       |  512   |
|      prelu3.weight      |      [512]       |  512   |
|       conv4.weight      |  [512, 1, 7, 7]  | 25088  |
|        bn4.weight       |      [512]       |  512   |
|         bn4.bias        |      [512]       |  512   |
|      linear.weight      |    [512, 512]    | 262144 |
|       linear.bias       |      [512]       |  512   |
+-------------------------+------------------+--------+
2019-06-21 18:08:52,668 INFO: |===>Number of parameters is: 2492840
2019-06-21 18:08:53,056 INFO: ------------------------FLOPs------------------------

2019-06-21 18:08:53,056 INFO: +-----------------+------------------+-----------+------------+------------------+----------+------------------------+
|      Layer      |   Weight Shape   | #Channels | Bias Shape |   Output Shape   |  FLOPs   |       Percentage       |
+-----------------+------------------+-----------+------------+------------------+----------+------------------------+
|      conv1      |  [64, 3, 3, 3]   |     3     |    [0]     | [1, 64, 56, 56]  | 10637312 |  0.010409108370637106  |
|      conv2      |  [64, 1, 3, 3]   |     64    |    [0]     | [1, 64, 56, 56]  | 3609536  | 0.0035321001576071073  |
|  layers.0.conv1 | [176, 64, 1, 1]  |     64    |    [0]     | [1, 176, 56, 56] | 70095872 |  0.06859209619707564   |
|  layers.0.conv2 |  [176, 1, 3, 3]  |    176    |    [0]     | [1, 176, 28, 28] | 2482928  | 0.0024296614246615356  |
|  layers.0.conv3 | [88, 176, 1, 1]  |    176    |    [0]     | [1, 88, 28, 28]  | 24216192 |  0.023696678902729872  |
|  layers.1.conv1 | [240, 88, 1, 1]  |     88    |    [0]     | [1, 240, 28, 28] | 32928000 |  0.032221591359578305  |
|  layers.1.conv2 |  [240, 1, 3, 3]  |    240    |    [0]     | [1, 240, 28, 28] | 3386096  |  0.003313453644809969  |
|  layers.1.conv3 | [88, 240, 1, 1]  |    240    |    [0]     | [1, 88, 28, 28]  | 33047168 |  0.03233820283307011   |
|  layers.2.conv1 | [240, 88, 1, 1]  |     88    |    [0]     | [1, 240, 28, 28] | 32928000 |  0.032221591359578305  |
|  layers.2.conv2 |  [240, 1, 3, 3]  |    240    |    [0]     | [1, 240, 28, 28] | 3386096  |  0.003313453644809969  |
|  layers.2.conv3 | [88, 240, 1, 1]  |    240    |    [0]     | [1, 88, 28, 28]  | 33047168 |  0.03233820283307011   |
|  layers.3.conv1 | [240, 88, 1, 1]  |     88    |    [0]     | [1, 240, 28, 28] | 32928000 |  0.032221591359578305  |
|  layers.3.conv2 |  [240, 1, 3, 3]  |    240    |    [0]     | [1, 240, 28, 28] | 3386096  |  0.003313453644809969  |
|  layers.3.conv3 | [88, 240, 1, 1]  |    240    |    [0]     | [1, 88, 28, 28]  | 33047168 |  0.03233820283307011   |
|  layers.4.conv1 | [240, 88, 1, 1]  |     88    |    [0]     | [1, 240, 28, 28] | 32928000 |  0.032221591359578305  |
|  layers.4.conv2 |  [240, 1, 3, 3]  |    240    |    [0]     | [1, 240, 28, 28] | 3386096  |  0.003313453644809969  |
|  layers.4.conv3 | [88, 240, 1, 1]  |    240    |    [0]     | [1, 88, 28, 28]  | 33047168 |  0.03233820283307011   |
|  layers.5.conv1 | [480, 88, 1, 1]  |     88    |    [0]     | [1, 480, 28, 28] | 65856000 |  0.06444318271915661   |
|  layers.5.conv2 |  [480, 1, 3, 3]  |    480    |    [0]     | [1, 480, 14, 14] | 1693244  | 0.0016569186175916487  |
|  layers.5.conv3 | [176, 480, 1, 1] |    480    |    [0]     | [1, 176, 14, 14] | 33081664 |  0.032371958785923007  |
|  layers.6.conv1 | [480, 176, 1, 1] |    176    |    [0]     | [1, 480, 14, 14] | 33022080 |   0.0323136530491771   |
|  layers.6.conv2 |  [480, 1, 3, 3]  |    480    |    [0]     | [1, 480, 14, 14] | 1693244  | 0.0016569186175916487  |
|  layers.6.conv3 | [176, 480, 1, 1] |    480    |    [0]     | [1, 176, 14, 14] | 33081664 |  0.032371958785923007  |
|  layers.7.conv1 | [480, 176, 1, 1] |    176    |    [0]     | [1, 480, 14, 14] | 33022080 |   0.0323136530491771   |
|  layers.7.conv2 |  [480, 1, 3, 3]  |    480    |    [0]     | [1, 480, 14, 14] | 1693244  | 0.0016569186175916487  |
|  layers.7.conv3 | [176, 480, 1, 1] |    480    |    [0]     | [1, 176, 14, 14] | 33081664 |  0.032371958785923007  |
|  layers.8.conv1 | [480, 176, 1, 1] |    176    |    [0]     | [1, 480, 14, 14] | 33022080 |   0.0323136530491771   |
|  layers.8.conv2 |  [480, 1, 3, 3]  |    480    |    [0]     | [1, 480, 14, 14] | 1693244  | 0.0016569186175916487  |
|  layers.8.conv3 | [176, 480, 1, 1] |    480    |    [0]     | [1, 176, 14, 14] | 33081664 |  0.032371958785923007  |
|  layers.9.conv1 | [480, 176, 1, 1] |    176    |    [0]     | [1, 480, 14, 14] | 33022080 |   0.0323136530491771   |
|  layers.9.conv2 |  [480, 1, 3, 3]  |    480    |    [0]     | [1, 480, 14, 14] | 1693244  | 0.0016569186175916487  |
|  layers.9.conv3 | [176, 480, 1, 1] |    480    |    [0]     | [1, 176, 14, 14] | 33081664 |  0.032371958785923007  |
| layers.10.conv1 | [480, 176, 1, 1] |    176    |    [0]     | [1, 480, 14, 14] | 33022080 |   0.0323136530491771   |
| layers.10.conv2 |  [480, 1, 3, 3]  |    480    |    [0]     | [1, 480, 14, 14] | 1693244  | 0.0016569186175916487  |
| layers.10.conv3 | [176, 480, 1, 1] |    480    |    [0]     | [1, 176, 14, 14] | 33081664 |  0.032371958785923007  |
| layers.11.conv1 | [480, 176, 1, 1] |    176    |    [0]     | [1, 480, 14, 14] | 33022080 |   0.0323136530491771   |
| layers.11.conv2 |  [480, 1, 3, 3]  |    480    |    [0]     | [1, 480, 14, 14] | 1693244  | 0.0016569186175916487  |
| layers.11.conv3 | [176, 480, 1, 1] |    480    |    [0]     | [1, 176, 14, 14] | 33081664 |  0.032371958785923007  |
| layers.12.conv1 | [952, 176, 1, 1] |    176    |    [0]     | [1, 952, 14, 14] | 65493792 |  0.06408874521420124   |
| layers.12.conv2 |  [952, 1, 3, 3]  |    952    |    [0]     |  [1, 952, 7, 7]  |  839615  | 0.0008216026308725807  |
| layers.12.conv3 | [176, 952, 1, 1] |    952    |    [0]     |  [1, 176, 7, 7]  | 16411472 |  0.016059394569763158  |
| layers.13.conv1 | [480, 176, 1, 1] |    176    |    [0]     |  [1, 480, 7, 7]  | 8255520  |  0.008078413262294274  |
| layers.13.conv2 |  [480, 1, 3, 3]  |    480    |    [0]     |  [1, 480, 7, 7]  |  423311  | 0.00041422965439791217 |
| layers.13.conv3 | [176, 480, 1, 1] |    480    |    [0]     |  [1, 176, 7, 7]  | 8270416  |  0.008092989696480752  |
| layers.14.conv1 | [480, 176, 1, 1] |    176    |    [0]     |  [1, 480, 7, 7]  | 8255520  |  0.008078413262294274  |
| layers.14.conv2 |  [480, 1, 3, 3]  |    480    |    [0]     |  [1, 480, 7, 7]  |  423311  | 0.00041422965439791217 |
| layers.14.conv3 | [176, 480, 1, 1] |    480    |    [0]     |  [1, 176, 7, 7]  | 8270416  |  0.008092989696480752  |
|      conv3      | [512, 176, 1, 1] |    176    |    [0]     |  [1, 512, 7, 7]  | 8805888  |  0.008616974146447227  |
|      conv4      |  [512, 1, 7, 7]  |    512    |    [0]     |  [1, 512, 1, 1]  |  50175   | 4.909858923915335e-05  |
|      linear     |    [512, 512]    |    512    |   [512]    |     [1, 512]     |  524288  | 0.0005130403817641701  |
+-----------------+------------------+-----------+------------+------------------+----------+------------------------+
2019-06-21 18:08:53,079 INFO: |===>Total FLOPs: 1.021923e+09
2019-06-21 18:08:59,661 INFO: ------------------------number of parameters------------------------

2019-06-21 18:08:59,662 INFO: +-------------------------+------------------+--------+
|        Param name       |      Shape       |  Dim   |
+-------------------------+------------------+--------+
|       conv1.weight      |  [64, 3, 3, 3]   |  1728  |
…
| layers.13.conv1 | [256, 64, 1, 1]  |     64    |    [0]     | [1, 256, 28, 28] | 25489408 |  0.02384345888772214   |
| layers.13.conv2 |  [256, 1, 3, 3]  |    256    |    [0]     | [1, 256, 14, 14] |  902972  | 0.0008446636249364534  |
| layers.13.conv3 | [128, 256, 1, 1] |    256    |    [0]     | [1, 128, 14, 14] | 12819968 |  0.01199213335789962   |
| layers.14.conv1 | [256, 128, 1, 1] |    128    |    [0]     | [1, 256, 14, 14] | 12794880 |  0.011968665386553437  |
| layers.14.conv2 |  [256, 1, 3, 3]  |    256    |    [0]     | [1, 256, 14, 14] |  902972  | 0.0008446636249364534  |
| layers.14.conv3 | [128, 256, 1, 1] |    256    |    [0]     | [1, 128, 14, 14] | 12819968 |  0.01199213335789962   |
| layers.15.conv1 | [256, 128, 1, 1] |    128    |    [0]     | [1, 256, 14, 14] | 12794880 |  0.011968665386553437  |
| layers.15.conv2 |  [256, 1, 3, 3]  |    256    |    [0]     | [1, 256, 14, 14] |  902972  | 0.0008446636249364534  |
| layers.15.conv3 | [128, 256, 1, 1] |    256    |    [0]     | [1, 128, 14, 14] | 12819968 |  0.01199213335789962   |
| layers.16.conv1 | [256, 128, 1, 1] |    128    |    [0]     | [1, 256, 14, 14] | 12794880 |  0.011968665386553437  |
| layers.16.conv2 |  [256, 1, 3, 3]  |    256    |    [0]     | [1, 256, 14, 14] |  902972  | 0.0008446636249364534  |
| layers.16.conv3 | [128, 256, 1, 1] |    256    |    [0]     | [1, 128, 14, 14] | 12819968 |  0.01199213335789962   |
| layers.17.conv1 | [256, 128, 1, 1] |    128    |    [0]     | [1, 256, 14, 14] | 12794880 |  0.011968665386553437  |
| layers.17.conv2 |  [256, 1, 3, 3]  |    256    |    [0]     | [1, 256, 14, 14] |  902972  | 0.0008446636249364534  |
| layers.17.conv3 | [128, 256, 1, 1] |    256    |    [0]     | [1, 128, 14, 14] | 12819968 |  0.01199213335789962   |
| layers.18.conv1 | [256, 128, 1, 1] |    128    |    [0]     | [1, 256, 14, 14] | 12794880 |  0.011968665386553437  |
| layers.18.conv2 |  [256, 1, 3, 3]  |    256    |    [0]     | [1, 256, 14, 14] |  902972  | 0.0008446636249364534  |
| layers.18.conv3 | [128, 256, 1, 1] |    256    |    [0]     | [1, 128, 14, 14] | 12819968 |  0.01199213335789962   |
| layers.19.conv1 | [256, 128, 1, 1] |    128    |    [0]     | [1, 256, 14, 14] | 12794880 |  0.011968665386553437  |
| layers.19.conv2 |  [256, 1, 3, 3]  |    256    |    [0]     | [1, 256, 14, 14] |  902972  | 0.0008446636249364534  |
| layers.19.conv3 | [128, 256, 1, 1] |    256    |    [0]     | [1, 128, 14, 14] | 12819968 |  0.01199213335789962   |
| layers.20.conv1 | [256, 128, 1, 1] |    128    |    [0]     | [1, 256, 14, 14] | 12794880 |  0.011968665386553437  |
| layers.20.conv2 |  [256, 1, 3, 3]  |    256    |    [0]     | [1, 256, 14, 14] |  902972  | 0.0008446636249364534  |
| layers.20.conv3 | [128, 256, 1, 1] |    256    |    [0]     | [1, 128, 14, 14] | 12819968 |  0.01199213335789962   |
| layers.21.conv1 | [256, 128, 1, 1] |    128    |    [0]     | [1, 256, 14, 14] | 12794880 |  0.011968665386553437  |
| layers.21.conv2 |  [256, 1, 3, 3]  |    256    |    [0]     | [1, 256, 14, 14] |  902972  | 0.0008446636249364534  |
| layers.21.conv3 | [128, 256, 1, 1] |    256    |    [0]     | [1, 128, 14, 14] | 12819968 |  0.01199213335789962   |
| layers.22.conv1 | [256, 128, 1, 1] |    128    |    [0]     | [1, 256, 14, 14] | 12794880 |  0.011968665386553437  |
| layers.22.conv2 |  [256, 1, 3, 3]  |    256    |    [0]     | [1, 256, 14, 14] |  902972  | 0.0008446636249364534  |
| layers.22.conv3 | [128, 256, 1, 1] |    256    |    [0]     | [1, 128, 14, 14] | 12819968 |  0.01199213335789962   |
| layers.23.conv1 | [256, 128, 1, 1] |    128    |    [0]     | [1, 256, 14, 14] | 12794880 |  0.011968665386553437  |
| layers.23.conv2 |  [256, 1, 3, 3]  |    256    |    [0]     | [1, 256, 14, 14] |  902972  | 0.0008446636249364534  |
| layers.23.conv3 | [128, 256, 1, 1] |    256    |    [0]     | [1, 128, 14, 14] | 12819968 |  0.01199213335789962   |
| layers.24.conv1 | [256, 128, 1, 1] |    128    |    [0]     | [1, 256, 14, 14] | 12794880 |  0.011968665386553437  |
| layers.24.conv2 |  [256, 1, 3, 3]  |    256    |    [0]     | [1, 256, 14, 14] |  902972  | 0.0008446636249364534  |
| layers.24.conv3 | [128, 256, 1, 1] |    256    |    [0]     | [1, 128, 14, 14] | 12819968 |  0.01199213335789962   |
| layers.25.conv1 | [256, 128, 1, 1] |    128    |    [0]     | [1, 256, 14, 14] | 12794880 |  0.011968665386553437  |
| layers.25.conv2 |  [256, 1, 3, 3]  |    256    |    [0]     | [1, 256, 14, 14] |  902972  | 0.0008446636249364534  |
| layers.25.conv3 | [128, 256, 1, 1] |    256    |    [0]     | [1, 128, 14, 14] | 12819968 |  0.01199213335789962   |
| layers.26.conv1 | [256, 128, 1, 1] |    128    |    [0]     | [1, 256, 14, 14] | 12794880 |  0.011968665386553437  |
| layers.26.conv2 |  [256, 1, 3, 3]  |    256    |    [0]     | [1, 256, 14, 14] |  902972  | 0.0008446636249364534  |
| layers.26.conv3 | [128, 256, 1, 1] |    256    |    [0]     | [1, 128, 14, 14] | 12819968 |  0.01199213335789962   |
| layers.27.conv1 | [256, 128, 1, 1] |    128    |    [0]     | [1, 256, 14, 14] | 12794880 |  0.011968665386553437  |
| layers.27.conv2 |  [256, 1, 3, 3]  |    256    |    [0]     | [1, 256, 14, 14] |  902972  | 0.0008446636249364534  |
| layers.27.conv3 | [128, 256, 1, 1] |    256    |    [0]     | [1, 128, 14, 14] | 12819968 |  0.01199213335789962   |
| layers.28.conv1 | [256, 128, 1, 1] |    128    |    [0]     | [1, 256, 14, 14] | 12794880 |  0.011968665386553437  |
| layers.28.conv2 |  [256, 1, 3, 3]  |    256    |    [0]     | [1, 256, 14, 14] |  902972  | 0.0008446636249364534  |
| layers.28.conv3 | [128, 256, 1, 1] |    256    |    [0]     | [1, 128, 14, 14] | 12819968 |  0.01199213335789962   |
| layers.29.conv1 | [256, 128, 1, 1] |    128    |    [0]     | [1, 256, 14, 14] | 12794880 |  0.011968665386553437  |
| layers.29.conv2 |  [256, 1, 3, 3]  |    256    |    [0]     | [1, 256, 14, 14] |  902972  | 0.0008446636249364534  |
| layers.29.conv3 | [128, 256, 1, 1] |    256    |    [0]     | [1, 128, 14, 14] | 12819968 |  0.01199213335789962   |
| layers.30.conv1 | [512, 128, 1, 1] |    128    |    [0]     | [1, 512, 14, 14] | 25589760 |  0.023937330773106873  |
| layers.30.conv2 |  [512, 1, 3, 3]  |    512    |    [0]     |  [1, 512, 7, 7]  |  451535  | 0.00042237764834976226 |
| layers.30.conv3 | [128, 512, 1, 1] |    512    |    [0]     |  [1, 128, 7, 7]  | 6416256  |  0.006001933671786356  |
| layers.31.conv1 | [256, 128, 1, 1] |    128    |    [0]     |  [1, 256, 7, 7]  | 3198720  |  0.002992166346638359  |
| layers.31.conv2 |  [256, 1, 3, 3]  |    256    |    [0]     |  [1, 256, 7, 7]  |  225743  | 0.00021116590623411336 |
| layers.31.conv3 | [128, 256, 1, 1] |    256    |    [0]     |  [1, 128, 7, 7]  | 3204992  |  0.002998033339474905  |
| layers.32.conv1 | [256, 128, 1, 1] |    128    |    [0]     |  [1, 256, 7, 7]  | 3198720  |  0.002992166346638359  |
| layers.32.conv2 |  [256, 1, 3, 3]  |    256    |    [0]     |  [1, 256, 7, 7]  |  225743  | 0.00021116590623411336 |
| layers.32.conv3 | [128, 256, 1, 1] |    256    |    [0]     |  [1, 128, 7, 7]  | 3204992  |  0.002998033339474905  |
| layers.33.conv1 | [256, 128, 1, 1] |    128    |    [0]     |  [1, 256, 7, 7]  | 3198720  |  0.002992166346638359  |
| layers.33.conv2 |  [256, 1, 3, 3]  |    256    |    [0]     |  [1, 256, 7, 7]  |  225743  | 0.00021116590623411336 |
| layers.33.conv3 | [128, 256, 1, 1] |    256    |    [0]     |  [1, 128, 7, 7]  | 3204992  |  0.002998033339474905  |
| layers.34.conv1 | [256, 128, 1, 1] |    128    |    [0]     |  [1, 256, 7, 7]  | 3198720  |  0.002992166346638359  |
| layers.34.conv2 |  [256, 1, 3, 3]  |    256    |    [0]     |  [1, 256, 7, 7]  |  225743  | 0.00021116590623411336 |
| layers.34.conv3 | [128, 256, 1, 1] |    256    |    [0]     |  [1, 128, 7, 7]  | 3204992  |  0.002998033339474905  |
| layers.35.conv1 | [256, 128, 1, 1] |    128    |    [0]     |  [1, 256, 7, 7]  | 3198720  |  0.002992166346638359  |
| layers.35.conv2 |  [256, 1, 3, 3]  |    256    |    [0]     |  [1, 256, 7, 7]  |  225743  | 0.00021116590623411336 |
| layers.35.conv3 | [128, 256, 1, 1] |    256    |    [0]     |  [1, 128, 7, 7]  | 3204992  |  0.002998033339474905  |
| layers.36.conv1 | [256, 128, 1, 1] |    128    |    [0]     |  [1, 256, 7, 7]  | 3198720  |  0.002992166346638359  |
| layers.36.conv2 |  [256, 1, 3, 3]  |    256    |    [0]     |  [1, 256, 7, 7]  |  225743  | 0.00021116590623411336 |
| layers.36.conv3 | [128, 256, 1, 1] |    256    |    [0]     |  [1, 128, 7, 7]  | 3204992  |  0.002998033339474905  |
| layers.37.conv1 | [256, 128, 1, 1] |    128    |    [0]     |  [1, 256, 7, 7]  | 3198720  |  0.002992166346638359  |
| layers.37.conv2 |  [256, 1, 3, 3]  |    256    |    [0]     |  [1, 256, 7, 7]  |  225743  | 0.00021116590623411336 |
| layers.37.conv3 | [128, 256, 1, 1] |    256    |    [0]     |  [1, 128, 7, 7]  | 3204992  |  0.002998033339474905  |
| layers.38.conv1 | [256, 128, 1, 1] |    128    |    [0]     |  [1, 256, 7, 7]  | 3198720  |  0.002992166346638359  |
| layers.38.conv2 |  [256, 1, 3, 3]  |    256    |    [0]     |  [1, 256, 7, 7]  |  225743  | 0.00021116590623411336 |
| layers.38.conv3 | [128, 256, 1, 1] |    256    |    [0]     |  [1, 128, 7, 7]  | 3204992  |  0.002998033339474905  |
|      conv2      | [512, 128, 1, 1] |    128    |    [0]     |  [1, 512, 7, 7]  | 6397440  |  0.005984332693276718  |
|      conv3      |  [512, 1, 7, 7]  |    512    |    [0]     |  [1, 512, 1, 1]  |  50175   | 4.693500726621263e-05  |
|      linear     |    [256, 512]    |    512    |   [256]    |     [1, 256]     |  262144  | 0.00024521635365807763 |
+-----------------+------------------+-----------+------------+------------------+----------+------------------------+
2019-07-24 09:46:11,016 INFO: |===>Total FLOPs: 1.069031e+09
2019-07-28 21:28:59,378 INFO: ------------------------number of parameters------------------------

2019-07-28 21:28:59,391 INFO: +-------------------------+------------------+--------+
|        Param name       |      Shape       |  Dim   |
+-------------------------+------------------+--------+
|       conv1.weight      |  [64, 3, 3, 3]   |  1728  |
|        bn1.weight       |       [64]       |   64   |
|         bn1.bias        |       [64]       |   64   |
|      prelu1.weight      |       [64]       |   64   |
|  layers.0.conv1.weight  |  [64, 64, 1, 1]  |  4096  |
|   layers.0.bn1.weight   |       [64]       |   64   |
|    layers.0.bn1.bias    |       [64]       |   64   |
|  layers.0.prelu1.weight |       [64]       |   64   |
|  layers.0.conv2.weight  |  [64, 1, 3, 3]   |  576   |
|   layers.0.bn2.weight   |       [64]       |   64   |
|    layers.0.bn2.bias    |       [64]       |   64   |
|  layers.0.prelu2.weight |       [64]       |   64   |
|  layers.0.conv3.weight  |  [64, 64, 1, 1]  |  4096  |
|   layers.0.bn3.weight   |       [64]       |   64   |
|    layers.0.bn3.bias    |       [64]       |   64   |
|  layers.1.conv1.weight  |  [64, 64, 1, 1]  |  4096  |
|   layers.1.bn1.weight   |       [64]       |   64   |
|    layers.1.bn1.bias    |       [64]       |   64   |
|  layers.1.prelu1.weight |       [64]       |   64   |
|  layers.1.conv2.weight  |  [64, 1, 3, 3]   |  576   |
|   layers.1.bn2.weight   |       [64]       |   64   |
|    layers.1.bn2.bias    |       [64]       |   64   |
|  layers.1.prelu2.weight |       [64]       |   64   |
|  layers.1.conv3.weight  |  [64, 64, 1, 1]  |  4096  |
|   layers.1.bn3.weight   |       [64]       |   64   |
|    layers.1.bn3.bias    |       [64]       |   64   |
|  layers.2.conv1.weight  |  [64, 64, 1, 1]  |  4096  |
|   layers.2.bn1.weight   |       [64]       |   64   |
|    layers.2.bn1.bias    |       [64]       |   64   |
|  layers.2.prelu1.weight |       [64]       |   64   |
|  layers.2.conv2.weight  |  [64, 1, 3, 3]   |  576   |
|   layers.2.bn2.weight   |       [64]       |   64   |
|    layers.2.bn2.bias    |       [64]       |   64   |
|  layers.2.prelu2.weight |       [64]       |   64   |
|  layers.2.conv3.weight  |  [64, 64, 1, 1]  |  4096  |
|   layers.2.bn3.weight   |       [64]       |   64   |
|    layers.2.bn3.bias    |       [64]       |   64   |
|  layers.3.conv1.weight  |  [64, 64, 1, 1]  |  4096  |
|   layers.3.bn1.weight   |       [64]       |   64   |
|    layers.3.bn1.bias    |       [64]       |   64   |
|  layers.3.prelu1.weight |       [64]       |   64   |
|  layers.3.conv2.weight  |  [64, 1, 3, 3]   |  576   |
|   layers.3.bn2.weight   |       [64]       |   64   |
|    layers.3.bn2.bias    |       [64]       |   64   |
|  layers.3.prelu2.weight |       [64]       |   64   |
|  layers.3.conv3.weight  |  [64, 64, 1, 1]  |  4096  |
|   layers.3.bn3.weight   |       [64]       |   64   |
|    layers.3.bn3.bias    |       [64]       |   64   |
|  layers.4.conv1.weight  | [128, 64, 1, 1]  |  8192  |
|   layers.4.bn1.weight   |      [128]       |  128   |
|    layers.4.bn1.bias    |      [128]       |  128   |
|  layers.4.prelu1.weight |      [128]       |  128   |
|  layers.4.conv2.weight  |  [128, 1, 3, 3]  |  1152  |
|   layers.4.bn2.weight   |      [128]       |  128   |
|    layers.4.bn2.bias    |      [128]       |  128   |
|  layers.4.prelu2.weight |      [128]       |  128   |
|  layers.4.conv3.weight  | [64, 128, 1, 1]  |  8192  |
|   layers.4.bn3.weight   |       [64]       |   64   |
|    layers.4.bn3.bias    |       [64]       |   64   |
|  layers.5.conv1.weight  | [128, 64, 1, 1]  |  8192  |
|   layers.5.bn1.weight   |      [128]       |  128   |
|    layers.5.bn1.bias    |      [128]       |  128   |
|  layers.5.prelu1.weight |      [128]       |  128   |
|  layers.5.conv2.weight  |  [128, 1, 3, 3]  |  1152  |
|   layers.5.bn2.weight   |      [128]       |  128   |
|    layers.5.bn2.bias    |      [128]       |  128   |
|  layers.5.prelu2.weight |      [128]       |  128   |
|  layers.5.conv3.weight  | [64, 128, 1, 1]  |  8192  |
|   layers.5.bn3.weight   |       [64]       |   64   |
|    layers.5.bn3.bias    |       [64]       |   64   |
|  layers.6.conv1.weight  | [128, 64, 1, 1]  |  8192  |
|   layers.6.bn1.weight   |      [128]       |  128   |
|    layers.6.bn1.bias    |      [128]       |  128   |
|  layers.6.prelu1.weight |      [128]       |  128   |
|  layers.6.conv2.weight  |  [128, 1, 3, 3]  |  1152  |
|   layers.6.bn2.weight   |      [128]       |  128   |
|    layers.6.bn2.bias    |      [128]       |  128   |
|  layers.6.prelu2.weight |      [128]       |  128   |
|  layers.6.conv3.weight  | [64, 128, 1, 1]  |  8192  |
|   layers.6.bn3.weight   |       [64]       |   64   |
|    layers.6.bn3.bias    |       [64]       |   64   |
|  layers.7.conv1.weight  | [128, 64, 1, 1]  |  8192  |
|   layers.7.bn1.weight   |      [128]       |  128   |
|    layers.7.bn1.bias    |      [128]       |  128   |
|  layers.7.prelu1.weight |      [128]       |  128   |
|  layers.7.conv2.weight  |  [128, 1, 3, 3]  |  1152  |
|   layers.7.bn2.weight   |      [128]       |  128   |
|    layers.7.bn2.bias    |      [128]       |  128   |
|  layers.7.prelu2.weight |      [128]       |  128   |
|  layers.7.conv3.weight  | [64, 128, 1, 1]  |  8192  |
|   layers.7.bn3.weight   |       [64]       |   64   |
|    layers.7.bn3.bias    |       [64]       |   64   |
|  layers.8.conv1.weight  | [128, 64, 1, 1]  |  8192  |
|   layers.8.bn1.weight   |      [128]       |  128   |
|    layers.8.bn1.bias    |      [128]       |  128   |
|  layers.8.prelu1.weight |      [128]       |  128   |
|  layers.8.conv2.weight  |  [128, 1, 3, 3]  |  1152  |
|   layers.8.bn2.weight   |      [128]       |  128   |
|    layers.8.bn2.bias    |      [128]       |  128   |
|  layers.8.prelu2.weight |      [128]       |  128   |
|  layers.8.conv3.weight  | [64, 128, 1, 1]  |  8192  |
|   layers.8.bn3.weight   |       [64]       |   64   |
|    layers.8.bn3.bias    |       [64]       |   64   |
|  layers.9.conv1.weight  | [128, 64, 1, 1]  |  8192  |
|   layers.9.bn1.weight   |      [128]       |  128   |
|    layers.9.bn1.bias    |      [128]       |  128   |
|  layers.9.prelu1.weight |      [128]       |  128   |
|  layers.9.conv2.weight  |  [128, 1, 3, 3]  |  1152  |
|   layers.9.bn2.weight   |      [128]       |  128   |
|    layers.9.bn2.bias    |      [128]       |  128   |
|  layers.9.prelu2.weight |      [128]       |  128   |
|  layers.9.conv3.weight  | [64, 128, 1, 1]  |  8192  |
|   layers.9.bn3.weight   |       [64]       |   64   |
|    layers.9.bn3.bias    |       [64]       |   64   |
|  layers.10.conv1.weight | [128, 64, 1, 1]  |  8192  |
|   layers.10.bn1.weight  |      [128]       |  128   |
|    layers.10.bn1.bias   |      [128]       |  128   |
| layers.10.prelu1.weight |      [128]       |  128   |
|  layers.10.conv2.weight |  [128, 1, 3, 3]  |  1152  |
|   layers.10.bn2.weight  |      [128]       |  128   |
|    layers.10.bn2.bias   |      [128]       |  128   |
| layers.10.prelu2.weight |      [128]       |  128   |
|  layers.10.conv3.weight | [64, 128, 1, 1]  |  8192  |
|   layers.10.bn3.weight  |       [64]       |   64   |
|    layers.10.bn3.bias   |       [64]       |   64   |
|  layers.11.conv1.weight | [128, 64, 1, 1]  |  8192  |
|   layers.11.bn1.weight  |      [128]       |  128   |
|    layers.11.bn1.bias   |      [128]       |  128   |
| layers.11.prelu1.weight |      [128]       |  128   |
|  layers.11.conv2.weight |  [128, 1, 3, 3]  |  1152  |
|   layers.11.bn2.weight  |      [128]       |  128   |
|    layers.11.bn2.bias   |      [128]       |  128   |
| layers.11.prelu2.weight |      [128]       |  128   |
|  layers.11.conv3.weight | [64, 128, 1, 1]  |  8192  |
|   layers.11.bn3.weight  |       [64]       |   64   |
|    layers.11.bn3.bias   |       [64]       |   64   |
|  layers.12.conv1.weight | [128, 64, 1, 1]  |  8192  |
|   layers.12.bn1.weight  |      [128]       |  128   |
|    layers.12.bn1.bias   |      [128]       |  128   |
| layers.12.prelu1.weight |      [128]       |  128   |
|  layers.12.conv2.weight |  [128, 1, 3, 3]  |  1152  |
|   layers.12.bn2.weight  |      [128]       |  128   |
|    layers.12.bn2.bias   |      [128]       |  128   |
| layers.12.prelu2.weight |      [128]       |  128   |
|  layers.12.conv3.weight | [64, 128, 1, 1]  |  8192  |
|   layers.12.bn3.weight  |       [64]       |   64   |
|    layers.12.bn3.bias   |       [64]       |   64   |
|  layers.13.conv1.weight | [256, 64, 1, 1]  | 16384  |
|   layers.13.bn1.weight  |      [256]       |  256   |
|    layers.13.bn1.bias   |      [256]       |  256   |
| layers.13.prelu1.weight |      [256]       |  256   |
|  layers.13.conv2.weight |  [256, 1, 3, 3]  |  2304  |
|   layers.13.bn2.weight  |      [256]       |  256   |
|    layers.13.bn2.bias   |      [256]       |  256   |
| layers.13.prelu2.weight |      [256]       |  256   |
|  layers.13.conv3.weight | [128, 256, 1, 1] | 32768  |
|   layers.13.bn3.weight  |      [128]       |  128   |
|    layers.13.bn3.bias   |      [128]       |  128   |
|  layers.14.conv1.weight | [256, 128, 1, 1] | 32768  |
|   layers.14.bn1.weight  |      [256]       |  256   |
|    layers.14.bn1.bias   |      [256]       |  256   |
| layers.14.prelu1.weight |      [256]       |  256   |
|  layers.14.conv2.weight |  [256, 1, 3, 3]  |  2304  |
|   layers.14.bn2.weight  |      [256]       |  256   |
|    layers.14.bn2.bias   |      [256]       |  256   |
| layers.14.prelu2.weight |      [256]       |  256   |
|  layers.14.conv3.weight | [128, 256, 1, 1] | 32768  |
|   layers.14.bn3.weight  |      [128]       |  128   |
|    layers.14.bn3.bias   |      [128]       |  128   |
|  layers.15.conv1.weight | [256, 128, 1, 1] | 32768  |
|   layers.15.bn1.weight  |      [256]       |  256   |
|    layers.15.bn1.bias   |      [256]       |  256   |
| layers.15.prelu1.weight |      [256]       |  256   |
|  layers.15.conv2.weight |  [256, 1, 3, 3]  |  2304  |
|   layers.15.bn2.weight  |      [256]       |  256   |
|    layers.15.bn2.bias   |      [256]       |  256   |
| layers.15.prelu2.weight |      [256]       |  256   |
|  layers.15.conv3.weight | [128, 256, 1, 1] | 32768  |
|   layers.15.bn3.weight  |      [128]       |  128   |
|    layers.15.bn3.bias   |      [128]       |  128   |
|  layers.16.conv1.weight | [256, 128, 1, 1] | 32768  |
|   layers.16.bn1.weight  |      [256]       |  256   |
|    layers.16.bn1.bias   |      [256]       |  256   |
| layers.16.prelu1.weight |      [256]       |  256   |
|  layers.16.conv2.weight |  [256, 1, 3, 3]  |  2304  |
|   layers.16.bn2.weight  |      [256]       |  256   |
|    layers.16.bn2.bias   |      [256]       |  256   |
| layers.16.prelu2.weight |      [256]       |  256   |
|  layers.16.conv3.weight | [128, 256, 1, 1] | 32768  |
|   layers.16.bn3.weight  |      [128]       |  128   |
|    layers.16.bn3.bias   |      [128]       |  128   |
|  layers.17.conv1.weight | [256, 128, 1, 1] | 32768  |
|   layers.17.bn1.weight  |      [256]       |  256   |
|    layers.17.bn1.bias   |      [256]       |  256   |
| layers.17.prelu1.weight |      [256]       |  256   |
|  layers.17.conv2.weight |  [256, 1, 3, 3]  |  2304  |
|   layers.17.bn2.weight  |      [256]       |  256   |
|    layers.17.bn2.bias   |      [256]       |  256   |
| layers.17.prelu2.weight |      [256]       |  256   |
|  layers.17.conv3.weight | [128, 256, 1, 1] | 32768  |
|   layers.17.bn3.weight  |      [128]       |  128   |
|    layers.17.bn3.bias   |      [128]       |  128   |
|  layers.18.conv1.weight | [256, 128, 1, 1] | 32768  |
|   layers.18.bn1.weight  |      [256]       |  256   |
|    layers.18.bn1.bias   |      [256]       |  256   |
| layers.18.prelu1.weight |      [256]       |  256   |
|  layers.18.conv2.weight |  [256, 1, 3, 3]  |  2304  |
|   layers.18.bn2.weight  |      [256]       |  256   |
|    layers.18.bn2.bias   |      [256]       |  256   |
| layers.18.prelu2.weight |      [256]       |  256   |
|  layers.18.conv3.weight | [128, 256, 1, 1] | 32768  |
|   layers.18.bn3.weight  |      [128]       |  128   |
|    layers.18.bn3.bias   |      [128]       |  128   |
|  layers.19.conv1.weight | [256, 128, 1, 1] | 32768  |
|   layers.19.bn1.weight  |      [256]       |  256   |
|    layers.19.bn1.bias   |      [256]       |  256   |
| layers.19.prelu1.weight |      [256]       |  256   |
|  layers.19.conv2.weight |  [256, 1, 3, 3]  |  2304  |
|   layers.19.bn2.weight  |      [256]       |  256   |
|    layers.19.bn2.bias   |      [256]       |  256   |
| layers.19.prelu2.weight |      [256]       |  256   |
|  layers.19.conv3.weight | [128, 256, 1, 1] | 32768  |
|   layers.19.bn3.weight  |      [128]       |  128   |
|    layers.19.bn3.bias   |      [128]       |  128   |
|  layers.20.conv1.weight | [256, 128, 1, 1] | 32768  |
|   layers.20.bn1.weight  |      [256]       |  256   |
|    layers.20.bn1.bias   |      [256]       |  256   |
| layers.20.prelu1.weight |      [256]       |  256   |
|  layers.20.conv2.weight |  [256, 1, 3, 3]  |  2304  |
|   layers.20.bn2.weight  |      [256]       |  256   |
|    layers.20.bn2.bias   |      [256]       |  256   |
| layers.20.prelu2.weight |      [256]       |  256   |
|  layers.20.conv3.weight | [128, 256, 1, 1] | 32768  |
|   layers.20.bn3.weight  |      [128]       |  128   |
|    layers.20.bn3.bias   |      [128]       |  128   |
|  layers.21.conv1.weight | [256, 128, 1, 1] | 32768  |
|   layers.21.bn1.weight  |      [256]       |  256   |
|    layers.21.bn1.bias   |      [256]       |  256   |
| layers.21.prelu1.weight |      [256]       |  256   |
|  layers.21.conv2.weight |  [256, 1, 3, 3]  |  2304  |
|   layers.21.bn2.weight  |      [256]       |  256   |
|    layers.21.bn2.bias   |      [256]       |  256   |
| layers.21.prelu2.weight |      [256]       |  256   |
|  layers.21.conv3.weight | [128, 256, 1, 1] | 32768  |
|   layers.21.bn3.weight  |      [128]       |  128   |
|    layers.21.bn3.bias   |      [128]       |  128   |
|  layers.22.conv1.weight | [256, 128, 1, 1] | 32768  |
|   layers.22.bn1.weight  |      [256]       |  256   |
|    layers.22.bn1.bias   |      [256]       |  256   |
| layers.22.prelu1.weight |      [256]       |  256   |
|  layers.22.conv2.weight |  [256, 1, 3, 3]  |  2304  |
|   layers.22.bn2.weight  |      [256]       |  256   |
|    layers.22.bn2.bias   |      [256]       |  256   |
| layers.22.prelu2.weight |      [256]       |  256   |
|  layers.22.conv3.weight | [128, 256, 1, 1] | 32768  |
|   layers.22.bn3.weight  |      [128]       |  128   |
|    layers.22.bn3.bias   |      [128]       |  128   |
|  layers.23.conv1.weight | [256, 128, 1, 1] | 32768  |
|   layers.23.bn1.weight  |      [256]       |  256   |
|    layers.23.bn1.bias   |      [256]       |  256   |
| layers.23.prelu1.weight |      [256]       |  256   |
|  layers.23.conv2.weight |  [256, 1, 3, 3]  |  2304  |
|   layers.23.bn2.weight  |      [256]       |  256   |
|    layers.23.bn2.bias   |      [256]       |  256   |
| layers.23.prelu2.weight |      [256]       |  256   |
|  layers.23.conv3.weight | [128, 256, 1, 1] | 32768  |
|   layers.23.bn3.weight  |      [128]       |  128   |
|    layers.23.bn3.bias   |      [128]       |  128   |
|  layers.24.conv1.weight | [256, 128, 1, 1] | 32768  |
|   layers.24.bn1.weight  |      [256]       |  256   |
|    layers.24.bn1.bias   |      [256]       |  256   |
| layers.24.prelu1.weight |      [256]       |  256   |
|  layers.24.conv2.weight |  [256, 1, 3, 3]  |  2304  |
|   layers.24.bn2.weight  |      [256]       |  256   |
|    layers.24.bn2.bias   |      [256]       |  256   |
| layers.24.prelu2.weight |      [256]       |  256   |
|  layers.24.conv3.weight | [128, 256, 1, 1] | 32768  |
|   layers.24.bn3.weight  |      [128]       |  128   |
|    layers.24.bn3.bias   |      [128]       |  128   |
|  layers.25.conv1.weight | [256, 128, 1, 1] | 32768  |
|   layers.25.bn1.weight  |      [256]       |  256   |
|    layers.25.bn1.bias   |      [256]       |  256   |
| layers.25.prelu1.weight |      [256]       |  256   |
|  layers.25.conv2.weight |  [256, 1, 3, 3]  |  2304  |
|   layers.25.bn2.weight  |      [256]       |  256   |
|    layers.25.bn2.bias   |      [256]       |  256   |
| layers.25.prelu2.weight |      [256]       |  256   |
|  layers.25.conv3.weight | [128, 256, 1, 1] | 32768  |
|   layers.25.bn3.weight  |      [128]       |  128   |
|    layers.25.bn3.bias   |      [128]       |  128   |
|  layers.26.conv1.weight | [256, 128, 1, 1] | 32768  |
|   layers.26.bn1.weight  |      [256]       |  256   |
|    layers.26.bn1.bias   |      [256]       |  256   |
| layers.26.prelu1.weight |      [256]       |  256   |
|  layers.26.conv2.weight |  [256, 1, 3, 3]  |  2304  |
|   layers.26.bn2.weight  |      [256]       |  256   |
|    layers.26.bn2.bias   |      [256]       |  256   |
| layers.26.prelu2.weight |      [256]       |  256   |
|  layers.26.conv3.weight | [128, 256, 1, 1] | 32768  |
|   layers.26.bn3.weight  |      [128]       |  128   |
|    layers.26.bn3.bias   |      [128]       |  128   |
|  layers.27.conv1.weight | [256, 128, 1, 1] | 32768  |
|   layers.27.bn1.weight  |      [256]       |  256   |
|    layers.27.bn1.bias   |      [256]       |  256   |
| layers.27.prelu1.weight |      [256]       |  256   |
|  layers.27.conv2.weight |  [256, 1, 3, 3]  |  2304  |
|   layers.27.bn2.weight  |      [256]       |  256   |
|    layers.27.bn2.bias   |      [256]       |  256   |
| layers.27.prelu2.weight |      [256]       |  256   |
|  layers.27.conv3.weight | [128, 256, 1, 1] | 32768  |
|   layers.27.bn3.weight  |      [128]       |  128   |
|    layers.27.bn3.bias   |      [128]       |  128   |
|  layers.28.conv1.weight | [256, 128, 1, 1] | 32768  |
|   layers.28.bn1.weight  |      [256]       |  256   |
|    layers.28.bn1.bias   |      [256]       |  256   |
| layers.28.prelu1.weight |      [256]       |  256   |
|  layers.28.conv2.weight |  [256, 1, 3, 3]  |  2304  |
|   layers.28.bn2.weight  |      [256]       |  256   |
|    layers.28.bn2.bias   |      [256]       |  256   |
| layers.28.prelu2.weight |      [256]       |  256   |
|  layers.28.conv3.weight | [128, 256, 1, 1] | 32768  |
|   layers.28.bn3.weight  |      [128]       |  128   |
|    layers.28.bn3.bias   |      [128]       |  128   |
|  layers.29.conv1.weight | [256, 128, 1, 1] | 32768  |
|   layers.29.bn1.weight  |      [256]       |  256   |
|    layers.29.bn1.bias   |      [256]       |  256   |
| layers.29.prelu1.weight |      [256]       |  256   |
|  layers.29.conv2.weight |  [256, 1, 3, 3]  |  2304  |
|   layers.29.bn2.weight  |      [256]       |  256   |
|    layers.29.bn2.bias   |      [256]       |  256   |
| layers.29.prelu2.weight |      [256]       |  256   |
|  layers.29.conv3.weight | [128, 256, 1, 1] | 32768  |
|   layers.29.bn3.weight  |      [128]       |  128   |
|    layers.29.bn3.bias   |      [128]       |  128   |
|  layers.30.conv1.weight | [512, 128, 1, 1] | 65536  |
|   layers.30.bn1.weight  |      [512]       |  512   |
|    layers.30.bn1.bias   |      [512]       |  512   |
| layers.30.prelu1.weight |      [512]       |  512   |
|  layers.30.conv2.weight |  [512, 1, 3, 3]  |  4608  |
|   layers.30.bn2.weight  |      [512]       |  512   |
|    layers.30.bn2.bias   |      [512]       |  512   |
| layers.30.prelu2.weight |      [512]       |  512   |
|  layers.30.conv3.weight | [128, 512, 1, 1] | 65536  |
|   layers.30.bn3.weight  |      [128]       |  128   |
|    layers.30.bn3.bias   |      [128]       |  128   |
|  layers.31.conv1.weight | [256, 128, 1, 1] | 32768  |
|   layers.31.bn1.weight  |      [256]       |  256   |
|    layers.31.bn1.bias   |      [256]       |  256   |
| layers.31.prelu1.weight |      [256]       |  256   |
|  layers.31.conv2.weight |  [256, 1, 3, 3]  |  2304  |
|   layers.31.bn2.weight  |      [256]       |  256   |
|    layers.31.bn2.bias   |      [256]       |  256   |
| layers.31.prelu2.weight |      [256]       |  256   |
|  layers.31.conv3.weight | [128, 256, 1, 1] | 32768  |
|   layers.31.bn3.weight  |      [128]       |  128   |
|    layers.31.bn3.bias   |      [128]       |  128   |
|  layers.32.conv1.weight | [256, 128, 1, 1] | 32768  |
|   layers.32.bn1.weight  |      [256]       |  256   |
|    layers.32.bn1.bias   |      [256]       |  256   |
| layers.32.prelu1.weight |      [256]       |  256   |
|  layers.32.conv2.weight |  [256, 1, 3, 3]  |  2304  |
|   layers.32.bn2.weight  |      [256]       |  256   |
|    layers.32.bn2.bias   |      [256]       |  256   |
| layers.32.prelu2.weight |      [256]       |  256   |
|  layers.32.conv3.weight | [128, 256, 1, 1] | 32768  |
|   layers.32.bn3.weight  |      [128]       |  128   |
|    layers.32.bn3.bias   |      [128]       |  128   |
|  layers.33.conv1.weight | [256, 128, 1, 1] | 32768  |
|   layers.33.bn1.weight  |      [256]       |  256   |
|    layers.33.bn1.bias   |      [256]       |  256   |
| layers.33.prelu1.weight |      [256]       |  256   |
|  layers.33.conv2.weight |  [256, 1, 3, 3]  |  2304  |
|   layers.33.bn2.weight  |      [256]       |  256   |
|    layers.33.bn2.bias   |      [256]       |  256   |
| layers.33.prelu2.weight |      [256]       |  256   |
|  layers.33.conv3.weight | [128, 256, 1, 1] | 32768  |
|   layers.33.bn3.weight  |      [128]       |  128   |
|    layers.33.bn3.bias   |      [128]       |  128   |
|  layers.34.conv1.weight | [256, 128, 1, 1] | 32768  |
|   layers.34.bn1.weight  |      [256]       |  256   |
|    layers.34.bn1.bias   |      [256]       |  256   |
| layers.34.prelu1.weight |      [256]       |  256   |
|  layers.34.conv2.weight |  [256, 1, 3, 3]  |  2304  |
|   layers.34.bn2.weight  |      [256]       |  256   |
|    layers.34.bn2.bias   |      [256]       |  256   |
| layers.34.prelu2.weight |      [256]       |  256   |
|  layers.34.conv3.weight | [128, 256, 1, 1] | 32768  |
|   layers.34.bn3.weight  |      [128]       |  128   |
|    layers.34.bn3.bias   |      [128]       |  128   |
|  layers.35.conv1.weight | [256, 128, 1, 1] | 32768  |
|   layers.35.bn1.weight  |      [256]       |  256   |
|    layers.35.bn1.bias   |      [256]       |  256   |
| layers.35.prelu1.weight |      [256]       |  256   |
|  layers.35.conv2.weight |  [256, 1, 3, 3]  |  2304  |
|   layers.35.bn2.weight  |      [256]       |  256   |
|    layers.35.bn2.bias   |      [256]       |  256   |
| layers.35.prelu2.weight |      [256]       |  256   |
|  layers.35.conv3.weight | [128, 256, 1, 1] | 32768  |
|   layers.35.bn3.weight  |      [128]       |  128   |
|    layers.35.bn3.bias   |      [128]       |  128   |
|  layers.36.conv1.weight | [256, 128, 1, 1] | 32768  |
|   layers.36.bn1.weight  |      [256]       |  256   |
|    layers.36.bn1.bias   |      [256]       |  256   |
| layers.36.prelu1.weight |      [256]       |  256   |
|  layers.36.conv2.weight |  [256, 1, 3, 3]  |  2304  |
|   layers.36.bn2.weight  |      [256]       |  256   |
|    layers.36.bn2.bias   |      [256]       |  256   |
| layers.36.prelu2.weight |      [256]       |  256   |
|  layers.36.conv3.weight | [128, 256, 1, 1] | 32768  |
|   layers.36.bn3.weight  |      [128]       |  128   |
|    layers.36.bn3.bias   |      [128]       |  128   |
|  layers.37.conv1.weight | [256, 128, 1, 1] | 32768  |
|   layers.37.bn1.weight  |      [256]       |  256   |
|    layers.37.bn1.bias   |      [256]       |  256   |
| layers.37.prelu1.weight |      [256]       |  256   |
|  layers.37.conv2.weight |  [256, 1, 3, 3]  |  2304  |
|   layers.37.bn2.weight  |      [256]       |  256   |
|    layers.37.bn2.bias   |      [256]       |  256   |
| layers.37.prelu2.weight |      [256]       |  256   |
|  layers.37.conv3.weight | [128, 256, 1, 1] | 32768  |
|   layers.37.bn3.weight  |      [128]       |  128   |
|    layers.37.bn3.bias   |      [128]       |  128   |
|  layers.38.conv1.weight | [256, 128, 1, 1] | 32768  |
|   layers.38.bn1.weight  |      [256]       |  256   |
|    layers.38.bn1.bias   |      [256]       |  256   |
| layers.38.prelu1.weight |      [256]       |  256   |
|  layers.38.conv2.weight |  [256, 1, 3, 3]  |  2304  |
|   layers.38.bn2.weight  |      [256]       |  256   |
|    layers.38.bn2.bias   |      [256]       |  256   |
| layers.38.prelu2.weight |      [256]       |  256   |
|  layers.38.conv3.weight | [128, 256, 1, 1] | 32768  |
|   layers.38.bn3.weight  |      [128]       |  128   |
|    layers.38.bn3.bias   |      [128]       |  128   |
|       conv2.weight      | [512, 128, 1, 1] | 65536  |
|        bn2.weight       |      [512]       |  512   |
|         bn2.bias        |      [512]       |  512   |
|      prelu2.weight      |      [512]       |  512   |
|       conv3.weight      |  [512, 1, 7, 7]  | 25088  |
|        bn3.weight       |      [512]       |  512   |
|         bn3.bias        |      [512]       |  512   |
|      linear.weight      |    [256, 512]    | 131072 |
|       linear.bias       |      [256]       |  256   |
+-------------------------+------------------+--------+
2019-07-28 21:28:59,449 INFO: |===>Number of parameters is: 2292864
2019-07-28 21:29:00,130 INFO: ------------------------FLOPs------------------------

2019-07-28 21:29:00,130 INFO: +-----------------+------------------+-----------+------------+------------------+----------+------------------------+
|      Layer      |   Weight Shape   | #Channels | Bias Shape |   Output Shape   |  FLOPs   |       Percentage       |
+-----------------+------------------+-----------+------------+------------------+----------+------------------------+
|      conv1      |  [64, 3, 3, 3]   |     3     |    [0]     | [1, 64, 56, 56]  | 10637312 |  0.00995041985078168   |
|  layers.0.conv1 |  [64, 64, 1, 1]  |     64    |    [0]     | [1, 64, 56, 56]  | 25489408 |  0.02384345888772214   |
|  layers.0.conv2 |  [64, 1, 3, 3]   |     64    |    [0]     | [1, 64, 56, 56]  | 3609536  |  0.003376454377432109  |
|  layers.0.conv3 |  [64, 64, 1, 1]  |     64    |    [0]     | [1, 64, 56, 56]  | 25489408 |  0.02384345888772214   |
|  layers.1.conv1 |  [64, 64, 1, 1]  |     64    |    [0]     | [1, 64, 56, 56]  | 25489408 |  0.02384345888772214   |
|  layers.1.conv2 |  [64, 1, 3, 3]   |     64    |    [0]     | [1, 64, 56, 56]  | 3609536  |  0.003376454377432109  |
|  layers.1.conv3 |  [64, 64, 1, 1]  |     64    |    [0]     | [1, 64, 56, 56]  | 25489408 |  0.02384345888772214   |
|  layers.2.conv1 |  [64, 64, 1, 1]  |     64    |    [0]     | [1, 64, 56, 56]  | 25489408 |  0.02384345888772214   |
|  layers.2.conv2 |  [64, 1, 3, 3]   |     64    |    [0]     | [1, 64, 56, 56]  | 3609536  |  0.003376454377432109  |
|  layers.2.conv3 |  [64, 64, 1, 1]  |     64    |    [0]     | [1, 64, 56, 56]  | 25489408 |  0.02384345888772214   |
|  layers.3.conv1 |  [64, 64, 1, 1]  |     64    |    [0]     | [1, 64, 56, 56]  | 25489408 |  0.02384345888772214   |
|  layers.3.conv2 |  [64, 1, 3, 3]   |     64    |    [0]     | [1, 64, 56, 56]  | 3609536  |  0.003376454377432109  |
|  layers.3.conv3 |  [64, 64, 1, 1]  |     64    |    [0]     | [1, 64, 56, 56]  | 25489408 |  0.02384345888772214   |
|  layers.4.conv1 | [128, 64, 1, 1]  |     64    |    [0]     | [1, 128, 56, 56] | 50978816 |  0.04768691777544428   |
|  layers.4.conv2 |  [128, 1, 3, 3]  |    128    |    [0]     | [1, 128, 28, 28] | 1805552  | 0.0016889605628206228  |
|  layers.4.conv3 | [64, 128, 1, 1]  |    128    |    [0]     | [1, 64, 28, 28]  | 12794880 |  0.011968665386553437  |
|  layers.5.conv1 | [128, 64, 1, 1]  |     64    |    [0]     | [1, 128, 28, 28] | 12744704 |  0.01192172944386107   |
|  layers.5.conv2 |  [128, 1, 3, 3]  |    128    |    [0]     | [1, 128, 28, 28] | 1805552  | 0.0016889605628206228  |
|  layers.5.conv3 | [64, 128, 1, 1]  |    128    |    [0]     | [1, 64, 28, 28]  | 12794880 |  0.011968665386553437  |
|  layers.6.conv1 | [128, 64, 1, 1]  |     64    |    [0]     | [1, 128, 28, 28] | 12744704 |  0.01192172944386107   |
|  layers.6.conv2 |  [128, 1, 3, 3]  |    128    |    [0]     | [1, 128, 28, 28] | 1805552  | 0.0016889605628206228  |
|  layers.6.conv3 | [64, 128, 1, 1]  |    128    |    [0]     | [1, 64, 28, 28]  | 12794880 |  0.011968665386553437  |
|  layers.7.conv1 | [128, 64, 1, 1]  |     64    |    [0]     | [1, 128, 28, 28] | 12744704 |  0.01192172944386107   |
|  layers.7.conv2 |  [128, 1, 3, 3]  |    128    |    [0]     | [1, 128, 28, 28] | 1805552  | 0.0016889605628206228  |
|  layers.7.conv3 | [64, 128, 1, 1]  |    128    |    [0]     | [1, 64, 28, 28]  | 12794880 |  0.011968665386553437  |
|  layers.8.conv1 | [128, 64, 1, 1]  |     64    |    [0]     | [1, 128, 28, 28] | 12744704 |  0.01192172944386107   |
|  layers.8.conv2 |  [128, 1, 3, 3]  |    128    |    [0]     | [1, 128, 28, 28] | 1805552  | 0.0016889605628206228  |
|  layers.8.conv3 | [64, 128, 1, 1]  |    128    |    [0]     | [1, 64, 28, 28]  | 12794880 |  0.011968665386553437  |
|  layers.9.conv1 | [128, 64, 1, 1]  |     64    |    [0]     | [1, 128, 28, 28] | 12744704 |  0.01192172944386107   |
|  layers.9.conv2 |  [128, 1, 3, 3]  |    128    |    [0]     | [1, 128, 28, 28] | 1805552  | 0.0016889605628206228  |
|  layers.9.conv3 | [64, 128, 1, 1]  |    128    |    [0]     | [1, 64, 28, 28]  | 12794880 |  0.011968665386553437  |
| layers.10.conv1 | [128, 64, 1, 1]  |     64    |    [0]     | [1, 128, 28, 28] | 12744704 |  0.01192172944386107   |
| layers.10.conv2 |  [128, 1, 3, 3]  |    128    |    [0]     | [1, 128, 28, 28] | 1805552  | 0.0016889605628206228  |
| layers.10.conv3 | [64, 128, 1, 1]  |    128    |    [0]     | [1, 64, 28, 28]  | 12794880 |  0.011968665386553437  |
| layers.11.conv1 | [128, 64, 1, 1]  |     64    |    [0]     | [1, 128, 28, 28] | 12744704 |  0.01192172944386107   |
| layers.11.conv2 |  [128, 1, 3, 3]  |    128    |    [0]     | [1, 128, 28, 28] | 1805552  | 0.0016889605628206228  |
| layers.11.conv3 | [64, 128, 1, 1]  |    128    |    [0]     | [1, 64, 28, 28]  | 12794880 |  0.011968665386553437  |
| layers.12.conv1 | [128, 64, 1, 1]  |     64    |    [0]     | [1, 128, 28, 28] | 12744704 |  0.01192172944386107   |
| layers.12.conv2 |  [128, 1, 3, 3]  |    128    |    [0]     | [1, 128, 28, 28] | 1805552  | 0.0016889605628206228  |
| layers.12.conv3 | [64, 128, 1, 1]  |    128    |    [0]     | [1, 64, 28, 28]  | 12794880 |  0.011968665386553437  |
| layers.13.conv1 | [256, 64, 1, 1]  |     64    |    [0]     | [1, 256, 28, 28] | 25489408 |  0.02384345888772214   |
| layers.13.conv2 |  [256, 1, 3, 3]  |    256    |    [0]     | [1, 256, 14, 14] |  902972  | 0.0008446636249364534  |
| layers.13.conv3 | [128, 256, 1, 1] |    256    |    [0]     | [1, 128, 14, 14] | 12819968 |  0.01199213335789962   |
| layers.14.conv1 | [256, 128, 1, 1] |    128    |    [0]     | [1, 256, 14, 14] | 12794880 |  0.011968665386553437  |
| layers.14.conv2 |  [256, 1, 3, 3]  |    256    |    [0]     | [1, 256, 14, 14] |  902972  | 0.0008446636249364534  |
| layers.14.conv3 | [128, 256, 1, 1] |    256    |    [0]     | [1, 128, 14, 14] | 12819968 |  0.01199213335789962   |
| layers.15.conv1 | [256, 128, 1, 1] |    128    |    [0]     | [1, 256, 14, 14] | 12794880 |  0.011968665386553437  |
| layers.15.conv2 |  [256, 1, 3, 3]  |    256    |    [0]     | [1, 256, 14, 14] |  902972  | 0.0008446636249364534  |
| layers.15.conv3 | [128, 256, 1, 1] |    256    |    [0]     | [1, 128, 14, 14] | 12819968 |  0.01199213335789962   |
| layers.16.conv1 | [256, 128, 1, 1] |    128    |    [0]     | [1, 256, 14, 14] | 12794880 |  0.011968665386553437  |
| layers.16.conv2 |  [256, 1, 3, 3]  |    256    |    [0]     | [1, 256, 14, 14] |  902972  | 0.0008446636249364534  |
| layers.16.conv3 | [128, 256, 1, 1] |    256    |    [0]     | [1, 128, 14, 14] | 12819968 |  0.01199213335789962   |
| layers.17.conv1 | [256, 128, 1, 1] |    128    |    [0]     | [1, 256, 14, 14] | 12794880 |  0.011968665386553437  |
| layers.17.conv2 |  [256, 1, 3, 3]  |    256    |    [0]     | [1, 256, 14, 14] |  902972  | 0.0008446636249364534  |
| layers.17.conv3 | [128, 256, 1, 1] |    256    |    [0]     | [1, 128, 14, 14] | 12819968 |  0.01199213335789962   |
| layers.18.conv1 | [256, 128, 1, 1] |    128    |    [0]     | [1, 256, 14, 14] | 12794880 |  0.011968665386553437  |
| layers.18.conv2 |  [256, 1, 3, 3]  |    256    |    [0]     | [1, 256, 14, 14] |  902972  | 0.0008446636249364534  |
| layers.18.conv3 | [128, 256, 1, 1] |    256    |    [0]     | [1, 128, 14, 14] | 12819968 |  0.01199213335789962   |
| layers.19.conv1 | [256, 128, 1, 1] |    128    |    [0]     | [1, 256, 14, 14] | 12794880 |  0.011968665386553437  |
| layers.19.conv2 |  [256, 1, 3, 3]  |    256    |    [0]     | [1, 256, 14, 14] |  902972  | 0.0008446636249364534  |
| layers.19.conv3 | [128, 256, 1, 1] |    256    |    [0]     | [1, 128, 14, 14] | 12819968 |  0.01199213335789962   |
| layers.20.conv1 | [256, 128, 1, 1] |    128    |    [0]     | [1, 256, 14, 14] | 12794880 |  0.011968665386553437  |
| layers.20.conv2 |  [256, 1, 3, 3]  |    256    |    [0]     | [1, 256, 14, 14] |  902972  | 0.0008446636249364534  |
| layers.20.conv3 | [128, 256, 1, 1] |    256    |    [0]     | [1, 128, 14, 14] | 12819968 |  0.01199213335789962   |
| layers.21.conv1 | [256, 128, 1, 1] |    128    |    [0]     | [1, 256, 14, 14] | 12794880 |  0.011968665386553437  |
| layers.21.conv2 |  [256, 1, 3, 3]  |    256    |    [0]     | [1, 256, 14, 14] |  902972  | 0.0008446636249364534  |
| layers.21.conv3 | [128, 256, 1, 1] |    256    |    [0]     | [1, 128, 14, 14] | 12819968 |  0.01199213335789962   |
| layers.22.conv1 | [256, 128, 1, 1] |    128    |    [0]     | [1, 256, 14, 14] | 12794880 |  0.011968665386553437  |
| layers.22.conv2 |  [256, 1, 3, 3]  |    256    |    [0]     | [1, 256, 14, 14] |  902972  | 0.0008446636249364534  |
| layers.22.conv3 | [128, 256, 1, 1] |    256    |    [0]     | [1, 128, 14, 14] | 12819968 |  0.01199213335789962   |
| layers.23.conv1 | [256, 128, 1, 1] |    128    |    [0]     | [1, 256, 14, 14] | 12794880 |  0.011968665386553437  |
| layers.23.conv2 |  [256, 1, 3, 3]  |    256    |    [0]     | [1, 256, 14, 14] |  902972  | 0.0008446636249364534  |
| layers.23.conv3 | [128, 256, 1, 1] |    256    |    [0]     | [1, 128, 14, 14] | 12819968 |  0.01199213335789962   |
| layers.24.conv1 | [256, 128, 1, 1] |    128    |    [0]     | [1, 256, 14, 14] | 12794880 |  0.011968665386553437  |
| layers.24.conv2 |  [256, 1, 3, 3]  |    256    |    [0]     | [1, 256, 14, 14] |  902972  | 0.0008446636249364534  |
| layers.24.conv3 | [128, 256, 1, 1] |    256    |    [0]     | [1, 128, 14, 14] | 12819968 |  0.01199213335789962   |
| layers.25.conv1 | [256, 128, 1, 1] |    128    |    [0]     | [1, 256, 14, 14] | 12794880 |  0.011968665386553437  |
| layers.25.conv2 |  [256, 1, 3, 3]  |    256    |    [0]     | [1, 256, 14, 14] |  902972  | 0.0008446636249364534  |
| layers.25.conv3 | [128, 256, 1, 1] |    256    |    [0]     | [1, 128, 14, 14] | 12819968 |  0.01199213335789962   |
| layers.26.conv1 | [256, 128, 1, 1] |    128    |    [0]     | [1, 256, 14, 14] | 12794880 |  0.011968665386553437  |
| layers.26.conv2 |  [256, 1, 3, 3]  |    256    |    [0]     | [1, 256, 14, 14] |  902972  | 0.0008446636249364534  |
| layers.26.conv3 | [128, 256, 1, 1] |    256    |    [0]     | [1, 128, 14, 14] | 12819968 |  0.01199213335789962   |
| layers.27.conv1 | [256, 128, 1, 1] |    128    |    [0]     | [1, 256, 14, 14] | 12794880 |  0.011968665386553437  |
| layers.27.conv2 |  [256, 1, 3, 3]  |    256    |    [0]     | [1, 256, 14, 14] |  902972  | 0.0008446636249364534  |
| layers.27.conv3 | [128, 256, 1, 1] |    256    |    [0]     | [1, 128, 14, 14] | 12819968 |  0.01199213335789962   |
| layers.28.conv1 | [256, 128, 1, 1] |    128    |    [0]     | [1, 256, 14, 14] | 12794880 |  0.011968665386553437  |
| layers.28.conv2 |  [256, 1, 3, 3]  |    256    |    [0]     | [1, 256, 14, 14] |  902972  | 0.0008446636249364534  |
| layers.28.conv3 | [128, 256, 1, 1] |    256    |    [0]     | [1, 128, 14, 14] | 12819968 |  0.01199213335789962   |
| layers.29.conv1 | [256, 128, 1, 1] |    128    |    [0]     | [1, 256, 14, 14] | 12794880 |  0.011968665386553437  |
| layers.29.conv2 |  [256, 1, 3, 3]  |    256    |    [0]     | [1, 256, 14, 14] |  902972  | 0.0008446636249364534  |
| layers.29.conv3 | [128, 256, 1, 1] |    256    |    [0]     | [1, 128, 14, 14] | 12819968 |  0.01199213335789962   |
| layers.30.conv1 | [512, 128, 1, 1] |    128    |    [0]     | [1, 512, 14, 14] | 25589760 |  0.023937330773106873  |
| layers.30.conv2 |  [512, 1, 3, 3]  |    512    |    [0]     |  [1, 512, 7, 7]  |  451535  | 0.00042237764834976226 |
| layers.30.conv3 | [128, 512, 1, 1] |    512    |    [0]     |  [1, 128, 7, 7]  | 6416256  |  0.006001933671786356  |
| layers.31.conv1 | [256, 128, 1, 1] |    128    |    [0]     |  [1, 256, 7, 7]  | 3198720  |  0.002992166346638359  |
| layers.31.conv2 |  [256, 1, 3, 3]  |    256    |    [0]     |  [1, 256, 7, 7]  |  225743  | 0.00021116590623411336 |
| layers.31.conv3 | [128, 256, 1, 1] |    256    |    [0]     |  [1, 128, 7, 7]  | 3204992  |  0.002998033339474905  |
| layers.32.conv1 | [256, 128, 1, 1] |    128    |    [0]     |  [1, 256, 7, 7]  | 3198720  |  0.002992166346638359  |
| layers.32.conv2 |  [256, 1, 3, 3]  |    256    |    [0]     |  [1, 256, 7, 7]  |  225743  | 0.00021116590623411336 |
| layers.32.conv3 | [128, 256, 1, 1] |    256    |    [0]     |  [1, 128, 7, 7]  | 3204992  |  0.002998033339474905  |
| layers.33.conv1 | [256, 128, 1, 1] |    128    |    [0]     |  [1, 256, 7, 7]  | 3198720  |  0.002992166346638359  |
| layers.33.conv2 |  [256, 1, 3, 3]  |    256    |    [0]     |  [1, 256, 7, 7]  |  225743  | 0.00021116590623411336 |
| layers.33.conv3 | [128, 256, 1, 1] |    256    |    [0]     |  [1, 128, 7, 7]  | 3204992  |  0.002998033339474905  |
| layers.34.conv1 | [256, 128, 1, 1] |    128    |    [0]     |  [1, 256, 7, 7]  | 3198720  |  0.002992166346638359  |
| layers.34.conv2 |  [256, 1, 3, 3]  |    256    |    [0]     |  [1, 256, 7, 7]  |  225743  | 0.00021116590623411336 |
| layers.34.conv3 | [128, 256, 1, 1] |    256    |    [0]     |  [1, 128, 7, 7]  | 3204992  |  0.002998033339474905  |
| layers.35.conv1 | [256, 128, 1, 1] |    128    |    [0]     |  [1, 256, 7, 7]  | 3198720  |  0.002992166346638359  |
| layers.35.conv2 |  [256, 1, 3, 3]  |    256    |    [0]     |  [1, 256, 7, 7]  |  225743  | 0.00021116590623411336 |
| layers.35.conv3 | [128, 256, 1, 1] |    256    |    [0]     |  [1, 128, 7, 7]  | 3204992  |  0.002998033339474905  |
| layers.36.conv1 | [256, 128, 1, 1] |    128    |    [0]     |  [1, 256, 7, 7]  | 3198720  |  0.002992166346638359  |
| layers.36.conv2 |  [256, 1, 3, 3]  |    256    |    [0]     |  [1, 256, 7, 7]  |  225743  | 0.00021116590623411336 |
| layers.36.conv3 | [128, 256, 1, 1] |    256    |    [0]     |  [1, 128, 7, 7]  | 3204992  |  0.002998033339474905  |
| layers.37.conv1 | [256, 128, 1, 1] |    128    |    [0]     |  [1, 256, 7, 7]  | 3198720  |  0.002992166346638359  |
| layers.37.conv2 |  [256, 1, 3, 3]  |    256    |    [0]     |  [1, 256, 7, 7]  |  225743  | 0.00021116590623411336 |
| layers.37.conv3 | [128, 256, 1, 1] |    256    |    [0]     |  [1, 128, 7, 7]  | 3204992  |  0.002998033339474905  |
| layers.38.conv1 | [256, 128, 1, 1] |    128    |    [0]     |  [1, 256, 7, 7]  | 3198720  |  0.002992166346638359  |
| layers.38.conv2 |  [256, 1, 3, 3]  |    256    |    [0]     |  [1, 256, 7, 7]  |  225743  | 0.00021116590623411336 |
| layers.38.conv3 | [128, 256, 1, 1] |    256    |    [0]     |  [1, 128, 7, 7]  | 3204992  |  0.002998033339474905  |
|      conv2      | [512, 128, 1, 1] |    128    |    [0]     |  [1, 512, 7, 7]  | 6397440  |  0.005984332693276718  |
|      conv3      |  [512, 1, 7, 7]  |    512    |    [0]     |  [1, 512, 1, 1]  |  50175   | 4.693500726621263e-05  |
|      linear     |    [256, 512]    |    512    |   [256]    |     [1, 256]     |  262144  | 0.00024521635365807763 |
+-----------------+------------------+-----------+------------+------------------+----------+------------------------+
2019-07-28 21:29:00,190 INFO: |===>Total FLOPs: 1.069031e+09
